data.pth (torch, 4289 bytes, 6 tensors)

l1.weight f4 [8, 31]
00000000: 40ef 11bf b1b7 ab3d 1344 c5bd 409c c3be
00000010: 5f34 513f 3304 c83d 0f31 053f 31ac 76be
00000020: d111 00bf 87fa 183f 63d3 94be cd42 393e
00000030: 4815 08bf 5397 5f3f 4f08 08bf 6e1a 08bf
00000040: 89b9 16be 87f6 83be ed1e 083e 0460 9c3d
00000050: 8f1f 08bf 6edb 3e3f 1595 ffbe 261d 08bf
00000060: cf34 6c3e 3064 01bf 5165 693f c5c5 e9be
00000070: 2e2f 3bbf 121b 37be 8ecc 79bb 1c4f b23e
00000080: 9e2a 3f3e fd63 453e ccde e13e dc97 103f
00000090: 7f0a 0fbf 014b 0a3f d238 f23e 96d0 93be
000000a0: 2c25 26bf ef21 343e a90e 09bf 53cf 113f
000000b0: e58e 063f 48e5 053f 6726 1d3f 1c53 ee3e
000000c0: aeb1 9c3e 73f0 33be c237 433e d99c 663f
000000d0: f2b6 09bf 6048 9cbe f4dc a8bc 483d efbe
000000e0: 4936 6f3e 4ced 12bf 3722 413f 2fbf 2c3e
000000f0: b1e5 1e3e 805d 593e 18ed a13e 483a 4d3e
00000100: 1ca6 023f d13d a03e 4215 043f c7f2 0c3f
00000110: c1a6 893e bcb4 ed3e 0192 e7be 1588 773e
00000120: 2e48 373f e7da 523f e001 043f a193 8a3d
00000130: 3237 d43e f952 173f c194 383e 4310 ce3e
00000140: a77c 05be b8d4 743d 7a01 eabe bc39 833e
00000150: be53 e9be 24ea e9be ebf7 9c3d 470b eabe
00000160: bc6e 953e 75f5 103f 927e e23e 4b16 853e
00000170: c748 e13e 417c 043f 35e2 e73e 3331 c73e
00000180: a690 81bc df10 0abf 8ac3 2b3f 49d1 17bf
00000190: a780 ff3e 14c3 fdbd 0d48 83be 60d1 ad3e
000001a0: 144b 3b3f 0002 2b3f dcb3 2ebe 8421 2b3f
000001b0: 9374 153f 364c 063e 2695 ee3e d804 2b3f
000001c0: 3835 333e f700 e7be d980 27be 8790 18be
000001d0: 52c6 02bf 1e17 143f 21be 17bf 166a a5bd
000001e0: 86a5 443f 9d17 173f 7a36 833e 7560 103f
000001f0: 4058 273f 2b54 ef3e d56c 513e ef6e 473e
00000200: 5185 c03e 1e3b a2be caf1 013f ca72 c23e
00000210: 5cf4 c5be d9e4 b9be dd79 803e 08bc a1be
00000220: 2256 ef3e 05b4 113f f096 c23e 889c df3e
00000230: 0005 f2bd 5a6c 013f 0968 64be 79e1 b33e
00000240: d2ee 2f3d 64e4 aabe 31ed c5be dbdb afbe
00000250: e326 6ebe bcbf a0be fa1d a1be b686 4d3f
00000260: 9975 f83e 5610 963e 79ce 3e3e aa07 373e
00000270: 477f 5c3e fb27 e93e 4862 f53e fab9 59bd
00000280: 6a8c 98be facd 0dbe 855a 013f 6a15 d3be
00000290: 0e97 95bc 43b3 1d3e 6b7b 7dbe 5863 1d3f
000002a0: ed62 56bd 6030 e13e 10e8 193f 7c31 c43e
000002b0: 5ba0 c33e 7666 5abe 9aa6 353d fcce c1be
000002c0: 39f7 223d 425c bbbe d841 133f c473 a33a
000002d0: 0605 c93e 158f 793d 890b 843d c295 2a3e
000002e0: 6776 de3e 538b 4a3e 4e26 2bbe 279b 50bc
000002f0: ff1b 273e 7b44 6f3e 5825 d6bd a6e4 bbbe
00000300: 1c7a cabd fbc9 123f 7745 b3be 6d9f 023f
00000310: fa5d 093f f415 b4be b474 003f cfad 51be
00000320: 0146 303f 569b 1b3f 51c4 d23e ecf4 783e
00000330: 7514 c7bd 0961 f53d 8efa d0be a23c df3e
00000340: 185e c4be 6bf2 693f 7916 f2bc 5902 783f
00000350: 2322 243f 82e9 d0be ecb7 4abd f53f c73e
00000360: ab2b cfbd 2c9b 9ebe 4542 ab3d 2910 d13e
00000370: e087 973e ae7a 97be 35a4 a6be 9d5b 51be
00000380: 575a e03d 93cd 463f d1f0 a63e 2eb1 ab3e
00000390: 2b91 6cbe cda6 8d3e f1fb 69be db1e 1f3e
000003a0: b0f3 993e 4a3f 6c3e 2352 7a3e 8122 debd
000003b0: ca97 1cbd 212e 0cbe c955 f43e 0043 403f
000003c0: 12e1 653f 4fca a23d a4ad 6e3f 96dd 073f
000003d0: 3142 59bf beed e2be a7ec d03e 2831 d53c
-0.5700569 0.08384646 -0.09632125 -0.38205147 0.81720537 0.09766426 0.5202798 -0.24089123
-0.50027186 0.59757274 -0.29067525 0.18091889 -0.5315747 0.8734028 -0.5313768 -0.5316533
-0.14719214 -0.25774023 0.13293047 0.07635501 -0.53173155 0.74553573 -0.49918428 -0.53169477
0.2306702 -0.505435 0.9117022 -0.456587 -0.73118865 -0.1788142 -0.003811631 0.3482598
0.18668601 0.19276424 0.44115293 0.5648172 -0.5587539 0.54020697 0.47308975 -0.28870076
-0.6490047 0.1759107 -0.53537995 0.56956977 0.5256179 0.5230298 0.6138672 0.46547782
0.3060431 -0.17572193 0.19064239 0.9008308 -0.5379478 -0.30523968 -0.020613171 -0.4672644
0.23360552 -0.57393336 0.7544283 0.16869806 0.15517308 0.21227074 0.316262 0.20041764
0.5103471 0.31297162 0.51594937 0.5505795 0.26885036 0.46426952 -0.4522858 0.24173005
0.7159451 0.8236527 0.5156536 0.06766439 0.4144836 0.5911098 0.18025495 0.40246782
-0.13035832 0.059773177 -0.45704252 0.25629985 -0.45571703 -0.45686448 0.07664474 -0.4571173
0.29186046 0.5662454 0.4423719 0.2599357 0.44000837 0.51752096 0.4528977 0.38904724
-0.015816044 -0.53931993 0.67095244 -0.5930372 0.4990284 -0.12390724 -0.25640908 0.33948803
0.73161435 0.66799927 -0.17060798 0.66848016 0.58381003 0.1311501 0.46598166 0.66804266
0.1750077 -0.45117924 -0.16357745 -0.14898883 -0.5108386 0.57847774 -0.5927449 -0.08076875
0.7681507 0.59020406 0.256275 0.5639718 0.65369034 0.46743903 0.20451672 0.19475912
0.37601712 -0.31685728 0.50759566 0.37978202 -0.38662994 -0.3630741 0.25092974 -0.3158877
0.46745402 0.56915313 0.3800578 0.4367411 -0.1181736 0.50555956 -0.22305311 0.3513296
0.042952366 -0.33377373 -0.38657525 -0.34347424 -0.23257022 -0.31396282 -0.31468183 0.8028368
0.4852722 0.29309338 0.1863345 0.17874017 0.21532927 0.45538315 0.47926545 -0.053155877
-0.29794627 -0.13848105 0.50528747 -0.41227275 -0.018260505 0.15400414 -0.24754111 0.6147971
-0.052340437 0.4398222 0.60119724 0.38319004 0.3820828 -0.21328148 0.044348337 -0.3785323
0.03978655 -0.36593825 0.57522345 0.0012470414 0.39261645 0.06092747 0.06447513 0.1665869
0.4344971 0.1977971 -0.16713831 -0.012732304 0.16319273 0.23365967 -0.104563415 -0.36697882
-0.09886572 0.5733945 -0.35013935 0.51024514 0.5365902 -0.35173 0.50178075 -0.20476459
0.6885682 0.607839 0.41165403 0.2431218 -0.09720699 0.119813986 -0.40816158 0.43600947
-0.38353038 0.91385525 -0.029551731 0.9687858 0.6411459 -0.40803152 -0.049491808 0.38915983
-0.10115751 -0.30977762 0.08362249 0.40832642 0.29595852 -0.29585785 -0.32547155 -0.20445104
0.10954731 0.7765743 0.32605603 0.33533615 -0.23102252 0.2766632 -0.22850014 0.15539114
0.3006873 0.23071018 0.24445395 -0.10846425 -0.038230695 -0.13689472 0.477217 0.75102234
0.89796555 0.079487436 0.93233705 0.5307249 -0.84866625 -0.44322008 0.4080555 0.026024416

l1.bias f4 [8]
00000000: d009 083f a4c5 2d3f ffea e93e 39b8 173f
00000010: a2d1 c53e 0e72 0e3f 29ea d03e 0929 7b3f
0.5313997 0.678797 0.456871 0.59265476 0.386365 0.55642784 0.4080365 0.9810949

l2.weight f4 [8, 8]
00000000: 8d54 8c3c 3858 813f 08e0 38bf 2a9a f2be
00000010: 6c99 fabd 0083 1a3f 9e64 5a3f 006c e23f
00000020: bbea 853f 2ff4 3a3f 3e54 bd3f 0b95 903f
00000030: 90ae 433f 0146 113f ff6c 91be 77e9 2abf
00000040: 91bc 8ebf 65ec e03f 9e7e d13e 1647 543d
00000050: 6c42 ba3f 67ed 943f 6200 803f f356 febe
00000060: fda6 72be a242 7fbe 2acf 433e 2d5e 2b3c
00000070: f1cf 49bd 0ec2 963d 43ce 4f3e 019f 8fbd
00000080: f2ba 9abf 3e5b e2bd 8186 973f 64a8 ae3f
00000090: 6cd7 143f e4e2 523f fe9d 7f3e 0345 9ebe
000000a0: 484c 983f d338 ccb9 41d5 db3e cb05 64bf
000000b0: 1827 683e 1a84 9f3f 136d 0940 3bce 953e
000000c0: c57a a23f 73ba e1be f2d6 c63f d267 183f
000000d0: e522 223f 23b8 263f 889a 0d3f 91eb 14bc
000000e0: 2d84 09bf dafb 0bbf 9667 443e 7cee 6b3f
000000f0: af78 72bf 90a9 673f 06dc be3f d31b 9d3f
0.01713016 1.0105047 -0.72216845 -0.47383243 -0.12236294 0.6035614 0.8530978 1.7689209
1.0462259 0.73028845 1.4791334 1.1295484 0.76438236 0.5674744 -0.2840347 -0.6676249
-1.1151296 1.7572142 0.40916914 0.051825605 1.455152 1.163495 1.0000117 -0.49675712
-0.23696513 -0.24927762 0.19121996 0.010459465 -0.049270574 0.07361232 0.20293526 -0.070127495
-1.2088301 -0.11052559 1.1837922 1.3645139 0.5814121 0.8237746 0.24962613 -0.30912027
1.1898279 -0.0003895225 0.42936137 -0.8907134 0.22671163 1.2462189 2.1472824 0.29258904
1.2693716 -0.44087562 1.5534346 0.5953342 0.63334495 0.6512472 0.5531392 -0.0090893665
-0.5371731 -0.5468117 0.1918014 0.92160773 -0.947154 0.90493107 1.4910896 1.2274116

l2.bias f4 [8]
00000000: 1e9f e53e 0566 c33e 2824 ebbc 4091 93be
00000010: 1af8 1dbe e419 e1be 2c84 6d3e 2029 143e
0.4484796 0.38163772 -0.028703764 -0.28821754 -0.15426674 -0.43965065 0.23194951 0.14468813

l3.weight f4 [8, 8]
00000000: 5018 39be c134 19bf 523e 02c0 dfce 553e
00000010: d8c2 6fbf 967f c73e 63d2 c53e 5c40 6b3c
00000020: 0d2e afbf 0020 353f 7798 e1bf 6a97 5fbe
00000030: 1944 e63e d3aa adbf f599 7d3e bca4 103e
00000040: bed3 98be 2009 17bf f240 b33e 1933 92be
00000050: 61f8 a63e 7d04 f2be c6a3 c7be b210 fcbd
00000060: 97d3 5fbd 9849 493e 6c21 d8be e2be 203e
00000070: 6db5 32bf 2432 ac3e 6e76 a63e 9b93 2bc0
00000080: 1ba1 033f 03c9 cebd d9e4 e83e 6f2b b0be
00000090: a466 36bf 06c2 01c0 0636 6ebf 9482 98bf
000000a0: ce6d 513f 430e c9bf 4f06 aabf 7efd a0be
000000b0: ee5b 4bbf ae46 0dc0 9f53 09be ba32 2a3f
000000c0: 3c12 503e b290 16c0 57b0 38be ab40 243e
000000d0: 1c52 4ebe 25f0 5d3e 9fe4 19bf 24b9 a73e
000000e0: 3d43 dfbf 9519 f03e 5db6 283f 81e8 b5bc
000000f0: 6dc9 c13e f78f eebf 9428 97be eb31 bdbf
-0.1807568 -0.5984612 -2.0350537 0.20879696 -0.9365668 0.38964528 0.38637075 0.014358606
-1.3685929 0.70751953 -1.7624654 -0.21835104 0.4497383 -1.3567756 0.24765761 0.14125341
-0.29849046 -0.589983 0.35010487 -0.2855461 0.32611373 -0.4726905 -0.38992137 -0.12307872
-0.054645147 0.1965698 -0.42213 0.15697816 -0.69808084 0.33632004 0.3251223 -2.6808841
0.514177 -0.10096934 0.45487097 -0.34408137 -0.7125037 -2.0274673 -0.93051183 -1.1914849
0.81808174 -1.5707477 -1.3283175 -0.314434 -0.7943715 -2.207439 -0.13410805 0.6648365
0.20319456 -2.3525815 -0.18036018 0.16040294 -0.2014851 0.21673639 -0.60114473 0.3275844
-1.7442394 0.46894518 0.65903264 -0.022205593 0.37848988 -1.8637685 -0.29523146 -1.4780859

l3.bias f4 [8]
00000000: 363d de3b 1601 943d 81a2 32bf c382 f53d
00000010: 5033 d93e fc45 263f 8d23 28bf 2d79 4cbe
0.0067821993 0.072267696 -0.6977921 0.119878314 0.4242196 0.6495054 -0.65679246 -0.199681
