data.pth (torch, 3585 bytes, 6 tensors)

l1.weight f4 [8, 21]
00000000: 649b f33d b939 31be 6819 d03e 5da2 63be
00000010: 1fd5 113f 9b37 37bd 5b16 bebd 44fc 2abe
00000020: 7978 0cbe 11ff 5bbd febc 2dbe 95e2 52be
00000030: a7c2 fa39 de68 cb3e 2360 083f f94c cebd
00000040: e399 023f 854c 0fbe 4928 50be 3663 883e
00000050: 4c7f ad3d ec99 04be f4d2 093e 00f6 c33e
00000060: 2b81 f53e da81 353e 7430 9f3e 2d0c 563e
00000070: 4bad c63e 2f11 e03e 4850 363d 3e72 9a3e
00000080: 0a73 b43e 31aa 213f f4fe b03e f63f 583e
00000090: ce61 4cbe 7824 763e 7790 96be 89ac 44be
000000a0: 758e 003f f1fb 9fb7 3608 6abe a56c c8bc
000000b0: 09d1 ca3e 5154 0dbe 6ac2 5c3d 55fc 47be
000000c0: d440 f7bd 35bb c4bd 8bf0 d33e 8bd9 2e3d
000000d0: 18c5 303f b4dd fa3e d1ff 17be 1543 0e3f
000000e0: 457c cb3d deba 283d b85f 3e3d bdb6 49be
000000f0: c074 3bbc 35d5 4a3e 55cd 11be d3ea 0c3f
00000100: 0807 973b 3be1 3ebe 5003 dfbe d3a6 273e
00000110: 648e 863d 0ff3 393e d9e8 233c 2a1b 3fbd
00000120: 49a0 ed3e 3db9 69be 14a0 cdbd 2408 a9be
00000130: a49e 33be de84 3a3d 780f 6a3e 1dd3 693e
00000140: 1ee6 153f a54a c23e d73a 42be 0f9c 9a3e
00000150: d79e 0a3f 75ae 563e c4b9 79be 302b 91be
00000160: 754d 8dbb 7397 8fbe 7737 96be b41a 853d
00000170: b925 00bf 02cb 853e 6ad5 93be e347 b9be
00000180: 7c20 1bbf cf9e 18be 3133 8cbc 83b6 e43e
00000190: 40aa 4dbe f450 4d3f b0bf d43e afb3 1ebe
000001a0: e106 a73e d0ad b53e 9e91 5e3e 70f2 2f3e
000001b0: a048 123f ec74 b3be bad6 063f fc41 103f
000001c0: 5e77 c0be cca1 3a3f f553 2bbe 7ce9 f53e
000001d0: 3a5c f43e 2bcb 383f 7c56 5b3e 1117 b8be
000001e0: 73d7 bebc 90b3 5b3c ba2d bdbe f3b2 39be
000001f0: a320 a03e 256d ec3d 80e3 49be 2b3b 1e3d
00000200: 5c01 cb3e c337 e93e 5402 0a3f 62e0 af3e
00000210: 414e 0b3f 38e0 363f 5274 da3e 7656 98be
00000220: da1a 133f 8667 e53e 6dee 053f 8459 db3e
00000230: 28e8 b53e d36f 01be d9ea 883e 6a55 d5be
00000240: 1c31 afbd 1298 d53e f4ff 3a3d 41b4 e93d
00000250: 9915 873e 9225 3e3e c2d5 893e 210d d7be
00000260: 89e7 033f 3ea8 cd3e 4444 d7be c350 043f
00000270: cb71 c2bc b381 0f3f e33c 203f 5a8b 303e
00000280: 68b5 9c3e db53 82be 8c93 733e d4e2 84bd
00000290: 2980 30bd cfea 8d3e b195 7d3e ff56 a8bd
0.11894873 -0.17307176 0.40644383 -0.22229905 0.5696582 -0.044730764 -0.09281608 -0.16697794
-0.13717832 -0.053710047 -0.16966626 -0.20594247 0.00047828743 0.39728445 0.53271693 -0.10073275
0.5101606 -0.13994034 -0.20327868 0.26638192 0.084715456 -0.12949342 0.13459378 0.3827362
0.4795011 0.17725316 0.31091654 0.20903082 0.38804087 0.4376311 0.044510156 0.30165285
0.35244018 0.63150316 0.34569514 0.21118149 -0.19959185 0.24037349 -0.29407093 -0.19206442
0.5021737 -1.9071596e-05 -0.22854695 -0.024465868 0.39612606 -0.13801695 0.053896345 -0.19529851
-0.12072912 -0.096060194 0.41394457 0.042687934 0.6905074 0.4899727 -0.1484368 0.5557111
0.09935812 0.041193835 0.046478003 -0.19698615 -0.01144141 0.19807895 -0.14238484 0.55045813
0.0046089925 -0.18640606 -0.43557215 0.16372232 0.065701276 0.18159126 0.010004246 -0.046656765
0.4641135 -0.22824569 -0.10040298 -0.33014023 -0.17540985 0.04553687 0.22857463 0.2283444
0.58554256 0.37947574 -0.18967758 0.30197188 0.5414862 0.20964988 -0.2438727 -0.28353262
-0.004312212 -0.28045234 -0.2933919 0.06499234 -0.5005756 0.26131445 -0.2887376 -0.36187658
-0.6059644 -0.1490433 -0.017114254 0.44670495 -0.20084476 0.8020165 0.41552496 -0.15498231
0.32622436 0.3548417 0.21735236 0.17182326 0.57142067 -0.35050142 0.52671397 0.56350684
-0.3759107 0.7290313 -0.16731246 0.48029697 0.47726613 0.7218501 0.2141971 -0.35955098
-0.023296094 0.01340951 -0.3694895 -0.1813467 0.312749 0.11544255 -0.1971569 0.038630646
0.39649475 0.45550355 0.539098 0.34350878 0.5441628 0.7143588 0.4266687 -0.29753464
0.5746285 0.44805545 0.52316934 0.42841733 0.35528684 -0.12640314 0.26741675 -0.41666728
-0.08554289 0.41717583 0.045654252 0.11411334 0.26383665 0.1856902 0.26920897 -0.42002204
0.5152517 0.4016742 -0.4204427 0.5168573 -0.023735901 0.5605728 0.62592906 0.17240658
0.30607152 -0.25454602 0.23786753 -0.064885765 -0.043090973 0.27718207 0.24764134 -0.08219718

l1.bias f4 [8]
00000000: a862 0c3e ff8c 963e 4fb2 493e 7dde 113f
00000010: 82e4 123f 4375 c03e 258b 143f a835 d73e
0.1370951 0.29404446 0.19696926 0.56980115 0.57379925 0.37589464 0.5802482 0.42033124

l2.weight f4 [8, 8]
00000000: 508a ff3e 8cb3 0bbd a779 82be 1283 9b3f
00000010: 80b0 463f 0a87 76bf 7b9c 453f 6f45 79bf
00000020: 696a 463f 83f6 473f efad 3e3f 71a3 5dbe
00000030: 6b1b cfbe de95 533f a59f 4d3f d1d1 903e
00000040: 15b3 7cbe a241 873e 2709 753f 08ff b23d
00000050: 8736 4ebf 467a 963f 8516 ae3e 6706 613f
00000060: c804 3a3f c8ba b03e 7a6e 233f b427 75be
00000070: 2a3a 9dbe ad6a 053f b60d 363f 099a 1d3f
00000080: 4c91 fdbe 0399 06bf 1212 513e db82 573f
00000090: 8436 5d3f b304 693f 0b60 28bf 14f2 993f
000000a0: 3f2d 2f3f c5e9 b33e 5496 703f bc3e 93bd
000000b0: 118f e5be 8c69 5b3f 32c6 8c3f f5bd 703e
000000c0: b6e8 bd3e 226b 2d3f efd9 e33e b439 a7be
000000d0: e402 87bd a1c9 2e3f 6cfb bc3e b520 be3e
000000e0: 596b 043f 4d2f b8be f0a2 dfbe 413b 833f
000000f0: 3c85 613f d6fd c6be 2c38 a63e c78c 34bf
0.49910212 -0.034106776 -0.25483438 1.2149374 0.7761307 -0.96299803 0.77191895 -0.9737157
0.7750612 0.7811052 0.7448415 -0.21644379 -0.40450606 0.82650554 0.80321723 0.28285077
-0.2467769 0.2641726 0.9571709 0.087400496 -0.8055195 1.1756065 0.34001556 0.87900394
0.72663546 0.34517503 0.6384045 -0.23940927 -0.30708438 0.521159 0.7111467 0.61563164
-0.49524915 -0.5257723 0.2041705 0.84184045 0.8641131 0.91022795 -0.6577155 1.2027001
0.68428415 0.3513929 0.9397938 -0.071897 -0.44835714 0.85707927 1.0997984 0.23509963
0.37091607 0.67741597 0.44502208 -0.32661211 -0.06592348 0.6827641 0.3691057 0.37134328
0.517263 -0.35973588 -0.43679 1.0252458 0.88093925 -0.38865536 0.3246473 -0.7052731

l2.bias f4 [8]
00000000: 694a 023f fd52 103f c672 81be ef36 c53e
00000010: ad2a 193e 620b da3e 7681 8b3e f474 263f
0.5089479 0.5637663 -0.25282878 0.38518474 0.14957686 0.4258681 0.27247208 0.65022206

l3.weight f4 [3, 8]
00000000: d5c2 1c3f d5c3 a93e dd70 6dbf 3f9a f03e
00000010: aeec 8bbf a5f4 4d3e 8891 343e f872 113e
00000020: 3c0b 80bf 79ee c43e dade 883f ab43 0e3f
00000030: 3a61 3fbe 455b 3e3e f89f bd3e 4afb 4abf
00000040: 18fa 393f 3a71 30bf d8ed 42be a980 57bf
00000050: 72b4 4d3f 6998 93bf 54fc eabe 258e a53e
0.6123479 0.3315722 -0.9275034 0.4699268 -1.0931604 0.20112856 0.17633641 0.14204013
-1.0003428 0.3846319 1.0693009 0.55572003 -0.18689433 0.18589504 0.3703611 -0.79289687
0.7264724 -0.6892277 -0.19036043 -0.84180695 0.8035346 -1.1530887 -0.45895636 0.3233501

l3.bias f4 [3]
00000000: 652a 66bd 6c83 7fbe 55f0 d33d
-0.056192774 -0.24952477 0.10348574
