data.pth (torch, 4993 bytes, 6 tensors)

l1.weight f4 [8, 46]
-0.0040162657 0.10651938 0.6331748 0.4578469 -0.2176836 -0.27922377 -0.7336483 0.4540344
0.27190283 0.4484742 0.94008183 -0.713208 0.38583702 -0.3230816 0.42931724 0.9344644
-0.33918533 0.51750755 -0.16730839 0.2155906 -0.32482085 -0.73287416 -0.33781216 -0.47970974
0.44375294 0.45142135 0.028561287 0.18980049 -0.15296601 0.32598326 1.028847 -0.28319257
0.3852032 0.48562738 0.48386276 0.66794777 0.5879134 0.18262975 0.637468 -0.39217383
-0.73276836 -0.03146232 -0.050427303 0.28175923 0.16129623 -0.0001500398 0.2974301 0.34061286
0.35896587 -0.009370334 0.054741215 -0.06909705 0.8452777 -0.57828957 0.87021726 0.33346933
0.32882637 0.9487045 0.1968861 0.16230594 0.2495381 -0.9654319 0.2646954 0.33219618
0.19447412 0.8137214 -0.0497785 0.81919646 0.006884292 -0.055110607 -0.0825116 -0.036456723
0.13186277 0.3159634 0.31366158 0.27657673 -0.6594964 0.29366493 0.29526588 0.05094683
-0.4265383 -0.9911989 0.38374206 0.43779835 0.38700366 0.2111668 0.6472232 -0.036059354
0.15793377 0.017400663 0.14314018 0.4338684 -0.07360935 -0.11386038 0.33968353 0.07698346
-0.048796482 -0.12871064 -0.5145738 0.46254554 -0.5062999 0.24790154 0.7080346 -0.51452
0.24518539 -0.20074311 0.27101517 0.8487532 0.6977423 0.27459842 -0.05613561 -0.4774501
-0.10106882 -0.5147352 -0.066450454 -0.088658236 -0.13789666 -0.10268674 -0.03714138 -0.13723597
0.012966692 0.03907702 -0.22678348 0.8212204 0.24480917 0.014199592 0.6890293 0.79751337
-0.5146019 -0.12939103 -0.5147343 0.81584924 -0.43195966 0.014465647 0.02467468 0.030553255
0.3126632 -0.24795437 0.040559303 0.06478326 -0.026724525 -0.0038667351 0.26346147 0.5494291
-0.5231806 0.056398887 -0.52297384 -0.06968944 -0.34103268 -0.5163438 -0.090959944 0.6219155
-0.06290864 0.2922361 0.68784845 -0.014579047 0.60628086 -0.5230313 0.67449856 -0.52287
0.70287865 0.5494285 0.17150408 -0.10956643 0.49696547 -0.37332135 -0.022374824 -0.047852915
-0.5228669 0.5959056 -0.0420047 -0.026559317 0.14770031 0.41220236 -0.5228868 -0.4191562
-0.52302325 0.6307239 0.28677312 -0.08619323 0.24050455 0.017770454 -0.08007256 0.26975706
-0.45347676 -0.10810004 -0.21474636 0.54823166 0.40114158 0.26452556 0.21627487 0.58650154
-0.74604744 -0.26642472 -0.7113215 0.271345 -0.1726399 0.6274784 -0.18540117 0.58790493
-0.50086504 0.24264467 0.5770301 -0.74648446 0.6492432 0.21907236 0.72845626 0.7565414
0.74873745 0.3720199 0.30552527 -0.3440043 -0.078772575 -0.2719448 1.1027426 -0.621951
-0.1622061 0.3029688 0.46885172 0.8142877 0.68914133 -0.3932156 0.6658053 -0.65227646
-0.74653095 -0.51204437 0.2916288 0.40837786 -0.034240425 -0.009342299 0.8988541 0.3695653
0.56893766 0.16517179 -0.12005614 -0.38328198 -0.675107 0.6825363 0.48768166 0.59524006
0.8298913 -0.67427325 0.2811084 -0.14461769 0.3854374 0.8252419 0.59283614 0.6243148
-0.11885033 0.44501618 -0.5985179 -0.505944 -0.580725 -0.43059394 -0.37801495 0.23801278
00000000: e19a 83bb d526 da3d be17 223f e96a ea3e
00000010: 73e8 5ebe 6bf6 8ebe 60d0 3bbf 3277 e83e
00000020: d936 8b3e 699e e53e 34a9 703f cd94 36bf
00000030: 6e8c c53e f46a a5be 78cf db3e 0f39 6f3f
00000040: b3a9 adbe 607b 043f e452 2bbe c8c3 5c3e
00000050: eb4e a6be a49d 3bbf b7f5 acbe 849c f5be
00000060: 9633 e33e b320 e73e 5cf9 e93c 0f5b 423e
00000070: 1fa3 1cbe 47e7 a63e 42b1 833f 9efe 90be
00000080: 5b39 c53e 27a4 f83e dcbc f73e a0fe 2a3f
00000090: 7e81 163f 4b03 3b3e 1a31 233f 02cb c8be
000000a0: b596 3bbf a2de 00bd dc8c 4ebd bf42 903e
000000b0: d72a 253e 0154 1db9 c248 983e cf64 ae3e
000000c0: 60ca b73e 0886 19bc 5338 603d c182 8dbd
000000d0: 1f64 583f c90a 14bf 8fc6 5e3f 7ebc aa3e
000000e0: ee5b a83e 4cde 723f 839c 493e 8733 263e
000000f0: ea86 7f3e 8c26 77bf 2886 873e 9e15 aa3e
00000100: 3924 473e 0c50 503f 8ae4 4bbd dcb6 513f
00000110: a095 e13b a9bb 61bd d7fb a8bd a553 15bd
00000120: 0907 073e f4c5 a13e 4098 a03e 779b 8d3e
00000130: c2d4 28bf 405b 963e 172d 973e a0ad 503d
00000140: 3a63 dabe 36bf 7dbf d779 c43e 1b27 e03e
00000150: 5825 c63e 1c3c 583e 6bb0 253f f9b2 13bd
00000160: 64b9 213e d68b 8e3c 5793 123e 0024 de3e
00000170: 80c0 96bd a22f e9bd 00eb ad3e 81a9 9d3d
00000180: d2de 47bd b9cc 03be 1cbb 03bf c5d2 ec3e
00000190: df9c 01bf e7d9 7d3e c141 353f 95b7 03bf
000001a0: e111 7b3e 9a8f 4dbe 80c2 8a3e e447 593f
000001b0: 3d9f 323f 2a98 8c3e 74ee 65bd 5774 f4be
000001c0: 2bfd cebd b0c5 03bf 2d17 88bd 7392 b5bd
000001d0: c834 0dbe 6d4d d2bd 8f21 18bd 9687 0cbe
000001e0: 4072 543c 3a0f 203d ee39 68be 803b 523f
000001f0: 41af 7a3e 68a5 683c 3964 303f d629 4c3f
00000200: f3bc 03bf 157f 04be a1c5 03bf 7fdb 503f
00000210: d129 ddbe 5201 6d3c 8e22 ca3c d24a fa3c
00000220: 6415 a03e c0e7 7dbe 8321 263d 16ad 843d
00000230: 64ed dabc 0d69 7dbb 6ce4 863e 63a7 0c3f
00000240: 2aef 05bf 8502 673d 9de1 05bf 56b9 8ebd
00000250: d69b aebe 1b2f 04bf 3549 babd db35 1f3f
00000260: 3fd6 80bd f89f 953e d616 303f f5dc 6ebc
00000270: 3935 1b3f 61e5 05bf f0ab 2c3f cfda 05bf
00000280: dbef 333f 59a7 0c3f c49e 2f3e 5d64 e0bd
00000290: 4272 fe3e fa23 bfbe 684b b7bc 6b01 44bd
000002a0: 9bda 05bf 458d 183f 1f0d 2cbd ed92 d9bc
000002b0: c03e 173e 300c d33e e9db 05bf a49b d6be
000002c0: dae4 05bf 1f77 213f edd3 923e 1386 b0bd
000002d0: d346 763e 5893 913c 15fd a3bd 991d 8a3e
000002e0: 1b2e e8be 8e63 ddbd 78e6 5bbe e958 0c3f
000002f0: 6e62 cd3e e56f 873e 2977 5d3e f724 163f
00000300: f7fc 3ebf d268 88be 2a19 36bf bbed 8a3e
00000310: 84c8 30be 6da2 203f ced9 3dbe f080 163f
00000320: b138 00bf d877 783e 3fb8 133f 9b19 3fbf
00000330: cd34 263f 8154 603e 1c7c 3a3f b2ac 413f
00000340: 42ad 3f3f 6479 be3e cf6d 9c3e 5521 b0be
00000350: 8453 a1bd 593c 8bbe ab26 8d3f 2e38 1fbf
00000360: 5b19 26be ba1e 9b3e 550d f03e 2975 503f
00000370: 916b 303f 8e53 c9be 3772 2a3f 97fb 26bf
00000380: a71c 3fbf 5715 03bf 5f50 953e e716 d13e
00000390: b03f 0cbd 7110 19bc 4d1b 663f aa37 bd3e
000003a0: e6a5 113f cb22 293e fedf f5bd 893d c4be
000003b0: d0d3 2cbf b3ba 2e3f 69b1 f93e a761 183f
000003c0: c273 543f 2c9d 2cbf 71ed 8f3e a916 14be
000003d0: 0d58 c53e 0e43 533f 1cc4 173f 18d3 1f3f
000003e0: cd67 f3bd 29d9 e33e 7838 19bf 8c85 01bf
000003f0: 65aa 14bf cf76 dcbe 2d8b c1be 9fb9 733e

l1.bias f4 [8]
0.73294735 1.1410317 0.51457906 0.5229205 0.74651736 0.6745158 0.6679858 -0.13699925
00000000: 70a2 3b3f 540d 923f 74bb 033f 1ede 053f
00000010: c31b 3f3f 11ad 2c3f 1e01 2b3f 8849 0cbe

l2.weight f4 [8, 8]
-0.23589481 0.11046796 0.29400423 -0.3184008 -0.20674972 -0.20515184 0.01805739 0.34840474
-0.15044339 1.3191592 0.6725099 0.32097223 -1.7248508 1.0884327 -0.1580436 -0.021301396
-0.1625462 1.387018 -1.0729012 -1.0598546 -0.08937193 -0.37813976 0.02387761 0.2124486
-0.69945705 0.6494494 -1.3548841 -0.301575 -1.3932549 0.59346396 0.7876853 -0.17723036
1.3361627 0.5087718 -0.40237898 -0.43583393 0.108143106 0.9156419 -1.5260514 -0.2319311
1.5041109 -0.9627003 1.4176869 0.7984499 1.247073 1.789051 0.6924919 -0.21322119
-0.887353 1.2332152 -0.253861 1.1656721 0.6729922 -0.57191026 1.6738144 -0.30433577
0.6481486 0.9072356 -1.0068679 -0.9090154 1.1257482 -0.58660173 -0.4528139 -0.22569455
00000000: 698e 71be 073d e23d b987 963e 6e05 a3be
00000010: 33b6 53be 5313 52be 17ed 933c 1b62 b23e
00000020: d50d 1abe 35da a83f 9c29 2c3f 7956 a43e
00000030: e9c7 dcbf c351 8b3f 2ed6 21be 4480 aebc
00000040: 8372 26be ce89 b13f d454 89bf 51a9 87bf
00000050: a108 b7bd 899b c1be fa9a c33c 208c 593e
00000060: 9e0f 33bf 5142 263f d86c adbf 0a68 9abe
00000070: 2d56 b2bf 41ed 173f bea5 493f e07b 35be
00000080: 6107 ab3f de3e 023f 9e04 cebe a025 dfbe
00000090: 227a dd3d 8267 6a3f a755 c3bf 597f 6dbe
000000a0: b586 c03f 8773 76bf c476 b53f 3667 4c3f
000000b0: 17a0 9f3f a0ff e43f 2647 313f a856 5abe
000000c0: 9129 63bf ffd9 9d3f 12fa 81be be34 953f
000000d0: 3849 2c3f b668 12bf 8d3f d63f e6d1 9bbe
000000e0: 11ed 253f 9840 683f 0ce1 80bf 3cb5 68bf
000000f0: 8418 903f 882b 16bf 39d7 e7be 791c 67be

l2.bias f4 [8]
-0.22023635 0.50648427 0.62664455 0.051050004 0.41361967 0.28404304 0.60716933 0.8166686
00000000: a385 61be f4a8 013f c76b 203f cf19 513d
00000010: f5c5 d33e 176e 913e 736f 1b3f 3211 513f

l3.weight f4 [9, 8]
-0.10156028 0.8413031 -1.3021613 -1.6028088 -1.0607708 0.044660926 -0.20666075 -1.3603991
0.14278486 0.7748884 0.33784133 -0.0015141587 0.7545669 -1.692884 -0.6476091 0.24904244
0.09877616 -1.9208008 -1.146997 -0.68583524 -0.78701484 -0.050166648 0.8387832 -0.1995906
0.25127187 -0.084092356 0.82508886 -0.09291205 -1.2880114 -2.2207468 0.39215535 0.94813746
0.06544391 -1.5321375 -1.3874272 -0.84959596 0.5535636 0.37398803 -1.8780303 0.6050205
-0.004774486 0.72007865 -1.2113311 -1.2786795 0.6052553 0.01399717 -1.7483044 -0.911871
0.27193287 -1.2096161 -0.49007306 -0.8858083 -0.2518581 0.9007232 -0.8569133 -1.5396036
0.20420259 -1.7404227 0.5470134 -1.3656546 0.5635974 -0.60231364 -0.44318318 0.9263594
-0.25508317 0.37959394 0.35409167 1.0651593 -1.1217476 -1.1752291 0.24914761 -1.2011037
00000000: d6fe cfbd a45f 573f 39ad a6bf d728 cdbf
00000010: 56c7 87bf 60ee 363d e09e 53be 8f21 aebf
00000020: 3236 123e 165f 463f 8af9 ac3e bc76 c6ba
00000030: 4c2b 413f 6cb0 d8bf b6c9 25bf fb04 7f3e
00000040: 284b ca3d cddc f5bf ccd0 92bf e692 2fbf
00000050: ce79 49bf 8b7b 4dbd 7fba 563f 7a61 4cbe
00000060: b5a6 803e 9d38 acbd 0639 533f ac48 bebd
00000070: 8fdd a4bf b720 0ec0 96c8 c83e 23b9 723f
00000080: 7507 863d 151d c4bf 3797 b1bf 1f7f 59bf
00000090: 58b6 0d3f 5c7b bf3e 4c63 f0bf a0e2 1a3f
000000a0: 4b73 9cbb 1357 383f e60c 9bbf c5ab a3bf
000000b0: 03f2 1a3f 6354 653c 70c8 dfbf 6170 69bf
000000c0: c93a 8b3e b3d4 9abf dbea fabe 55c4 62bf
000000d0: 8bf3 80be cc95 663f ac5e 5bbf bb11 c5bf
000000e0: 7c1a 513e 2cc6 debf 1209 0c3f c5cd aebf
000000f0: eb47 103f 3a31 1abf e8e8 e2be e425 6d3f
00000100: 439a 82be 235a c23e 814b b53e 2457 883f
00000110: 6d95 8fbf e86d 96bf 8d20 7f3e c4bd 99bf

l3.bias f4 [9]
0.3312196 0.0194808 0.23034835 0.18607324 -0.15278071 0.111915626 0.15090218 0.1856554
-0.16220742
00000000: 9e95 a93e 3396 9f3c 70e0 6b3e fc89 3e3e
00000010: 8c72 1cbe 0534 e53d 1a86 1a3e 731c 3e3e
00000020: b419 26be
