data.pth (torch, 4383 bytes, 6 tensors)

l1.weight f4 [8, 31]
000000 76 8e 03 bf a0 a8 2c bd ee 1b f4 3d fb 07 53 3f
       -0.51389253 -0.042153 0.1191939 0.8243405
000010 34 65 84 3f 93 75 85 be 7f c2 45 3f f9 0d 12 be
       1.0343385 -0.26066265 0.772499 -0.14263143
000020 1d 6c c9 3e e7 6f f3 be 63 e1 a7 bd 4e 68 d1 be
       0.39340296 -0.47546312 -0.08197286 -0.4089989
000030 f3 7b a5 3e f5 13 53 3f cb ab 9b 3e e7 de 3d 3e
       0.32321128 0.82452327 0.30404505 0.18542062
000040 6f 83 2c 3f 24 45 73 3e a1 c9 87 bc bb 89 e4 bd
       0.6738805 0.23756844 -0.016575636 -0.111590825
000050 70 6a c4 3e d5 f1 ea be dc 34 23 3e c7 ad 81 3e
       0.38362455 -0.45887628 0.15938133 0.25327894
000060 17 a7 2a bd e2 06 62 3e 5b ed f0 be 66 95 c6 be
       -0.041663256 0.22072938 -0.47056088 -0.38785857
000070 d9 2f 9e be 52 08 a2 3e 17 d5 7c be fb 4d ce 3e
       -0.3089588 0.31646973 -0.24690662 0.4029387
000080 ae 62 b2 3e 0a 08 08 3e 61 8f 75 3e 72 79 52 3f
       0.34840912 0.13284317 0.23980476 0.8221656
000090 9c 21 16 bf d4 12 7a 3f eb 59 96 3e b2 4d 37 3e
       -0.58645034 0.9768498 0.29365477 0.17900732
0000a0 f0 78 17 bf 17 66 c5 3e b2 ed 16 bf 03 f7 05 3f
       -0.5916891 0.3855445 -0.58956444 0.52330035
0000b0 f5 95 2b 3f 05 a2 0f 3f 20 7e 2a 3f 4f 23 a3 3e
       0.6702569 0.561066 0.665987 0.31862876
0000c0 d5 7a 02 3e 93 e0 71 be cb 6a dd 3e ab 73 ec be
       0.12742169 -0.23620825 0.4324554 -0.46181998
0000d0 e0 54 18 bf c5 07 b5 3e 0d 63 98 be ab 1a a0 be
       -0.5950451 0.3535749 -0.2976307 -0.31270346
0000e0 35 f4 c1 be 2c 98 18 bf 6e bb 5b 3f 8f 79 fc 3d
       -0.37881628 -0.59607196 0.8583287 0.12327873
0000f0 c1 3e 94 3e 2d 69 39 3d 69 2b af be bc 5b 2d bd
       0.28954127 0.04526632 -0.34212807 -0.042323813
000100 1a 8f bc 3e ea 83 01 3f 8a c5 d2 bd bc d0 5c 3f
       0.36827928 0.5059191 -0.10291584 0.86256003
000110 d8 98 7c be 0b 23 85 3e cf d6 16 3f a2 12 1e bf
       -0.2466768 0.26003298 0.5892152 -0.6174718
000120 75 d1 fe 3e 41 01 42 3f b1 d3 19 3f 65 07 5e be
       0.49769178 0.75783163 0.6008864 -0.21682508
000130 da 7b 32 3f e7 49 ee 3e ac 80 f8 3e 28 a2 a9 3e
       0.6972023 0.46540758 0.4853567 0.33131528
000140 67 7c 22 3f 00 36 70 bc d1 eb 1b bf 56 e7 15 bf
       0.6347107 -0.014661312 -0.609067 -0.58556116
000150 43 ae 44 3f 59 1c d6 be 60 64 14 3f 7c 7b ca be
       0.768284 -0.41818503 0.5796566 -0.39547336
000160 cf f0 01 bf 17 02 2a bf 1c 56 d8 bd 4e 02 f5 3e
       -0.5075807 -0.6640944 -0.10563299 0.4785332
000170 e2 85 1d 3e 93 cb a3 3e fc b7 11 3e 39 e2 97 be
       0.15383103 0.31991252 0.1423034 -0.29664782
000180 70 bd 09 be 10 c8 6b bf 61 6a 31 3f 6e 54 4b bf
       -0.13451171 -0.92102146 0.69302946 -0.79425704
000190 08 bd dc be 9c 29 44 3f db ac 59 3f e6 d4 da be
       -0.4311297 0.7662599 0.8502938 -0.42740554
0001a0 81 a1 b5 3e 98 d1 01 bf c0 85 62 bf 4b 55 e9 be
       0.3547478 -0.5071044 -0.88485336 -0.45572886
0001b0 30 b2 0d bf 54 3b 31 bd 42 1b 3d be 7b 75 11 3f
       -0.5535002 -0.04326947 -0.1846743 0.56819886
0001c0 02 9f e1 bd eb e9 ea be fe 07 37 3f df 82 51 3f
       -0.110166565 -0.4588159 0.7149657 0.8184032
0001d0 97 e8 29 3f cc b5 1e 3f ae 06 17 3f f6 ab 03 3f
       0.6637053 0.6199615 0.5899457 0.51434267
0001e0 04 b5 f3 be 95 1f 8d 3e 6c 3b c4 be a0 f9 d4 3c
       -0.4759904 0.27563158 -0.38326585 0.025997937
0001f0 fa 30 49 3f d6 3f 05 3f 45 73 ca bd bf b4 6b 3e
       0.7859036 0.5205053 -0.09885267 0.23018168
000200 ef 7c 19 3f 6c 0c 23 bf c1 08 0e 3f eb 2d b9 3d
       0.5995626 -0.6369083 0.5548211 0.09041961
000210 2d d5 39 3e ab b4 f2 bd 7a 90 0e 3d 80 ab 20 bf
       0.18147726 -0.11850866 0.034805752 -0.6276169
000220 45 f2 06 bd 30 91 f3 3e c9 77 ab 3e 1d 56 8b bd
       -0.03294589 0.47571707 0.33489826 -0.06803534
000230 d0 ab 9b 3e 21 a4 5b be 92 4e cd be b4 9d 02 3f
       0.3040452 -0.21449329 -0.40099007 0.51021886
000240 e0 6d 1c be 5b c3 1b be 12 f7 e8 3e 02 88 cc 3e
       -0.15276289 -0.15211241 0.45501 0.39947516
000250 15 14 e9 be 13 7c d0 3e 4d 15 81 be 79 91 86 3f
       -0.45523134 0.4071966 -0.25211564 1.0513145
000260 60 4a 19 3f 44 b6 ab bd 96 8b b2 3e e8 4c 35 3d
       0.5987911 -0.08384374 0.3487212 0.044262797
000270 91 2a d9 bd 12 13 26 3e 34 26 f8 3d 06 4f 09 3e
       -0.10603822 0.16218212 0.12116662 0.13409051
000280 a0 c0 88 3b e0 0b 93 bc 52 88 9e bd 26 10 cf bd
       0.0041733533 -0.017949998 -0.07740845 -0.10110502
000290 d8 5a 0b bd 0a 39 70 bd 04 ae 64 3d d5 be 1f be
       -0.034022182 -0.058648147 0.055830017 -0.1560014
0002a0 3c 5f 7f bd 80 7a c8 3c c5 16 00 be 47 41 37 be
       -0.062346682 0.024472475 -0.12508686 -0.17895995
0002b0 f8 a0 0b be 55 a1 6f 3d 88 bf fa bd 00 3a 78 3a
       -0.13635623 0.058503468 -0.12243563 0.0009469092
0002c0 48 d9 8c 3d 36 78 82 bd 70 9e 9b bc d4 ea 4d 3d
       0.068773806 -0.06370585 -0.018996447 0.050272778
0002d0 6d 2c 9d bd d7 da 90 bd e0 48 46 bd 80 c6 cb 3b
       -0.07674489 -0.070729904 -0.048409343 0.0062187314
0002e0 78 50 5b bd 7f 96 69 3c ec de 1d 3f bf 88 b0 3e
       -0.053543538 0.0142570725 0.61668277 0.3447933
0002f0 39 0e e0 3e d0 a9 15 3f f3 84 03 bf 8b 05 9c bc
       0.4376085 0.5846224 -0.5137474 -0.019045612
000300 fd ce f7 be 09 34 02 3f 47 ec 11 3f a8 97 12 3f
       -0.48400107 0.5086065 0.57001156 0.5726266
000310 44 44 2a 3f df fc c5 bd 75 2b 07 3f 7a 3a e5 be
       0.66510415 -0.09667372 0.52800685 -0.44771177
000320 89 25 57 3f 42 b2 51 3f df 3c 00 3f 50 9b cf 3e
       0.8404165 0.81912625 0.5009288 0.40548182
000330 5d ba 51 be 1b f3 82 3d 15 8f 10 bf 1d 17 20 3f
       -0.20481248 0.06394025 -0.56468326 0.6253527
000340 a0 a4 c6 3e a6 dd 20 bf b9 d3 86 be ea cc 20 bf
       0.38797474 -0.6283821 -0.26333407 -0.62812674
000350 ba 0f 0b 3f 13 97 57 3f e8 54 43 3f bd 7c dd 3e
       0.5432087 0.84214896 0.7630143 0.4325923
000360 c6 0c 04 3f 97 a9 21 3f a0 a8 aa 3e 19 28 0a be
       0.5158199 0.631494 0.33331776 -0.13491859
000370 ae df 97 be 38 d0 4a bd d0 46 14 bf 23 69 98 be
       -0.29662842 -0.04951498 -0.5792055 -0.29767713
000380 b3 96 58 be 94 70 60 3f 00 13 ce 3e 35 9d bf be
       -0.21151237 0.8767178 0.4024887 -0.37424627
000390 6f 8f 14 bf 37 95 14 bf 2f 97 2b be f7 f6 0e bf
       -0.5803136 -0.58040184 -0.1675689 -0.5584559
0003a0 81 c2 15 bf 4f b4 3a be a7 94 06 be 6c 64 54 be
       -0.58499914 -0.18232845 -0.13142644 -0.20741433
0003b0 48 7a 3e 3e 7e 83 86 3e 3c c6 c4 3e 5c 14 8a 3f
       0.18601334 0.26272196 0.3843249 1.0787463
0003c0 a0 60 15 bf b1 58 3f be 48 43 15 bf 53 0b e3 3e
       -0.58350563 -0.18686177 -0.5830579 0.44344577
0003d0 b0 4f 67 3f 08 8c fd 3e 11 e7 a3 be e2 71 b4 bd
       0.9035597 0.49520898 -0.32012227 -0.08810784

l1.bias f4 [8]
000000 5e 2f 04 3f e5 67 18 3f 9d 38 30 3f 00 e2 6b 3f
       0.51634777 0.5953353 0.68836385 0.92141724
000010 9d 68 30 3f 26 5b 0f be 70 93 2c 3f f8 27 15 3f
       0.6890963 -0.13999614 0.6741247 0.5826411

l2.weight f4 [8, 8]
000000 0b 62 14 3f 4e 28 bb 3e 89 bf d5 3f d6 3d 74 be
       0.579621 0.36554188 1.6699077 -0.23851714
000010 9e ef e2 be 1c 30 02 be 8e 99 0f 3f 53 0e 96 be
       -0.44323438 -0.12713665 0.5609368 -0.29307804
000020 54 51 09 40 c4 8b ca 3f 80 29 ff 3e 03 4d 0a bf
       2.1455889 1.5823903 0.4983635 -0.5402376
000030 08 3d e8 3f b5 bc 91 3e 2d f7 9f be cc 37 11 3f
       1.8143625 0.28464285 -0.31243268 0.56725764
000040 f6 23 bf 3e 14 56 8c 3f 3d a5 36 3f c1 47 b6 bf
       0.37332124 1.0963769 0.71345884 -1.4240648
000050 97 f8 71 3f b1 31 a9 3e 35 d1 85 3f 43 42 a3 bf
       0.94519943 0.33045724 1.045447 -1.2754596
000060 f2 cd 28 be a3 58 0a be 3d 70 86 3f cb d1 a8 3f
       -0.16484812 -0.13510375 1.0503002 1.3189024
000070 86 85 1b 3e e3 52 b0 bc 30 d0 ca 3e a7 c4 dc bf
       0.15187654 -0.021523898 0.3961196 -1.7247514
000080 8b c3 ae 3c 60 b6 ca bc d5 72 47 3c 5d db 17 be
       0.021333477 -0.024745166 0.012173374 -0.14829774
000090 66 ac 9e be 55 e8 aa 3e 9a 8e 0d 3e 86 6f 21 3e
       -0.30990905 0.3338038 0.1382393 0.15765199
0000a0 e8 16 6a bf 69 91 25 3e 9e c9 a8 be f7 71 55 3e
       -0.914412 0.16168751 -0.32966322 0.20844255
0000b0 e2 fc 32 3f f7 51 99 3e cf 73 a4 3f c4 39 ab 3f
       0.6991712 0.29945347 1.2847842 1.3377004
0000c0 aa 84 24 be 09 0d 44 3e a0 33 b9 3f 1a 48 d8 3e
       -0.16066232 0.19145598 1.446888 0.4224251
0000d0 41 21 39 bf 9e f7 50 3e 70 70 0a 3f 34 5a b1 3d
       -0.72316366 0.20406958 0.54077816 0.08659783
0000e0 f8 b3 58 be 07 25 4f bf 46 b1 08 3f c5 73 f3 3f
       -0.21162403 -0.80915874 0.533955 1.9019705
0000f0 1b d9 8b 3e 77 2d b4 be 6a 2d 78 3f d6 98 2a 3f
       0.27314076 -0.35190937 0.96944296 0.6663946

l2.bias f4 [8]
000000 ae b8 2c be 80 99 22 3e 0c 1f 94 3d 47 f2 45 3f
       -0.16867325 0.15878868 0.07232484 0.7732281
000010 b5 74 6b be 06 52 cf be b8 c4 00 bd 0f 1e 60 3f
       -0.22993739 -0.40492266 -0.031437606 0.87545866

l3.weight f4 [8, 8]
000000 02 b3 bc bf c7 1b ff bf c8 50 bf be d2 c7 5a 3e
       -1.4742129 -1.9930352 -0.3736632 0.21365288
000010 99 24 12 3e f1 db e0 3e b0 be 69 be 51 61 3e 3f
       0.14271773 0.43917802 -0.22826648 0.74367243
000020 2a 4a 0d 3f ba 27 d0 bf a4 39 4d bf 37 a2 37 3f
       0.5519129 -1.6262124 -0.8016608 0.71731895
000030 5c 5d 18 be f2 8f ef bf 60 cd 40 3f 65 03 89 3e
       -0.14879364 -1.8715804 0.7531338 0.26760402
000040 45 b2 4d 3f 09 35 0a be 27 bd 1e 3f 53 a1 ec 3d
       0.8035014 -0.13496794 0.62007374 0.11554208
000050 ba 0b 93 be 68 23 d2 be 98 b1 08 3f 63 af 98 bf
       -0.28719884 -0.41042638 0.53395987 -1.1928524
000060 e1 94 db 3e 5d e0 5b 3f 13 07 29 3f 7f a7 ac bf
       0.42887023 0.85889226 0.6602642 -1.3488616
000070 04 aa 13 3e 83 1e 62 bf 8b b2 7b bf d4 61 1c c0
       0.14420325 -0.8832781 -0.9831931 -2.443471
000080 df 5d a0 bf e0 71 bd 3e 96 48 66 bf a9 e4 81 bf
       -1.2528647 0.37000942 -0.8995451 -1.0147907
000090 ff 72 46 be 90 c7 8c bf cd fd 67 bf 11 f9 80 3e
       -0.19379805 -1.0998402 -0.90621644 0.25190023
0000a0 40 ea 83 3e 88 98 7a bd 1e 41 8d bf 37 f1 9a be
       0.25764656 -0.06118062 -1.1035497 -0.30262157
0000b0 e3 98 0d be 25 cd c8 bd de b8 00 3f b6 bb 0b be
       -0.13827853 -0.09804753 0.50282085 -0.13645825
0000c0 e8 14 b8 bf ad 2f b0 3b a8 8e 92 bf a8 fb 8a 3f
       -1.438138 0.005376777 -1.1449785 1.0858049
0000d0 db 13 2c 3e c2 06 12 c0 10 c8 31 bf 75 d6 5a 3e
       0.1680445 -2.2816625 -0.69445896 0.21370871
0000e0 e3 d5 68 bf 21 c5 86 3e 1a de 03 3f ed 58 cd bf
       -0.90951365 0.26322272 0.51510775 -1.6042763
0000f0 e4 de a1 bd 2d 2c 7d 3f 8a bb 3a bf 61 d3 b1 bf
       -0.07903841 0.9889553 -0.7294241 -1.3892633

l3.bias f4 [8]
000000 7a b9 b8 3c 2a 6c 96 be ce 1a 05 bf ed 1a 02 3e
       0.02254938 -0.29379398 -0.51994026 0.12705584
000010 bf cf 3c 3f c1 fd cf be f2 8e 2c bd b3 b3 ce be
       0.73754495 -0.40623286 -0.04212851 -0.40371475
