data.pth (torch, 5791 bytes, 6 tensors)

l1.weight f4 [8, 60]
-0.2524349 0.048413157 0.602515 -0.32224008 -0.12140329 -0.49797308 0.4933529 -0.18069576
-0.11550528 -0.3114618 0.37413746 0.7994757 0.29090258 0.17211655 -0.37385195 -0.2623571
0.43100873 -0.38052234 0.015945533 0.44632542 -0.030175496 -0.11810355 -0.29442784 -0.38094795
0.20497832 -0.38050812 -0.38049552 0.25059402 -0.48644426 -0.13097602 0.5155345 -0.38059375
-0.11744962 -0.07607547 0.38809133 -0.026154965 0.5156892 -0.2273325 -0.13419281 -0.53952134
-0.0162068 0.42110142 0.6649816 -0.24641651 0.42518374 -0.19995047 -0.3809427 -0.36699146
-0.36988544 0.6223352 -0.1573087 0.55801374 0.21451613 -0.1041296 -0.3154232 -0.12812221
0.6149879 -0.025788598 0.15489127 -0.08124674 -0.040816616 0.1795125 0.21787332 -0.10497393
0.48165166 0.54407674 0.11681193 -0.17304836 0.70056516 -0.57226765 0.1745488 0.017687187
0.0860509 0.02622167 1.5195409 0.4824936 0.1134961 -0.31076625 -0.6132796 0.42403615
0.4227942 0.45831123 -0.5791923 0.82966477 0.0057145734 0.8218717 0.6294747 0.31969061
-0.21535039 0.37839228 0.2204743 0.76906383 -0.38031536 0.13976678 0.26775506 0.40460807
0.17155024 -0.2829653 -0.13525578 -0.53641874 -0.775931 0.18435599 0.21797433 -0.24077739
0.042099167 -0.05593564 -0.5660241 -0.30015332 -0.30640942 0.92882836 -0.3466254 0.9328198
-0.6899639 0.11912062 -0.16512108 0.38739246 0.05724824 -0.61048955 0.51365286 0.2451175
-0.54612106 0.09789702 0.62068206 -0.27304676 0.37579903 0.44927287 0.6291521 0.57189703
0.07794763 0.012192537 0.42848164 0.5316226 0.6286222 0.16452011 -0.5940403 0.5519134
0.25012344 0.9718292 0.6363511 0.19482632 0.027612021 0.5728353 -0.0048492705 0.64017284
0.4751445 0.62680614 0.8128052 0.4518795 -0.29547742 0.46356863 0.75684714 -0.8745034
0.13737634 -0.069610626 0.2840012 0.034965575 0.31573033 -0.71935093 -0.7844884 -0.6189333
0.63666093 0.28309244 0.48808074 -0.17529334 0.56446105 0.7561497 -0.61684227 0.8995158
0.87140965 -0.74717927 -0.04827696 -0.89757013 0.66519636 -0.74631673 -0.35305434 0.5383141
0.17753628 0.6435204 -0.10906464 0.10818809 0.64425474 0.30493018 0.4606574 -0.2685943
-0.20839146 -0.70440584 0.82606643 -0.23456302 -0.05909118 -0.08746854 0.25323328 0.6099123
0.72309375 0.2041533 -0.63996834 -0.33721542 0.22930218 -0.33466247 0.54604286 0.16432638
-0.12713176 -0.3867831 -0.08609535 -0.70628256 1.0077153 -0.7240646 -0.72406805 -0.13271216
-0.05696189 -0.29445562 0.7082845 -0.7240382 -0.086169384 0.3893389 0.34948978 -0.12770098
0.32068893 0.7073997 0.83292997 -0.13063766 0.7195942 0.33619362 0.5002089 -0.09248465
0.7341477 -0.18078302 -0.28269467 -0.41808423 -0.4049424 -0.43418145 0.002818815 -0.23128082
0.6235781 1.049034 0.4964985 -0.22116747 0.43687105 0.77346164 -0.24908087 0.12772311
0.40322733 0.28802326 0.39924914 -0.19339164 0.21646741 0.05577772 0.8079901 -0.27396178
-0.0050880997 0.24949448 0.34307483 0.7731317 0.7550722 0.19887316 -0.6021516 0.28165534
00000000: 263f 81be e04c 463d 6c3e 1a3f a7fc a4be
00000010: 4aa2 f8bd 54f6 febe c098 fc3e 4f08 39be
00000020: 088e ecbd ec77 9fbe f28e bf3e 71aa 4c3f
00000030: 2ff1 943e 523f 303e 8669 bfbe ab53 86be
00000040: 2dad dc3e d3d3 c2be 35a0 823c c484 e43e
00000050: 9a32 f7bc 46e0 f1bd 3fbf 96be 9c0b c3be
00000060: d6e5 513e f6d1 c2be 4fd0 c2be dc4d 803e
00000070: 390f f9be 941e 06be 12fa 033f 2fdd c2be
00000080: 6d89 f0bd 75cd 9bbd e8b3 c63e f042 d6bc
00000090: 3504 043f dac9 68be d769 09be 121e 0abf
000000a0: 1fc4 84bc 9b9a d73e 3c3c 2a3f 9c54 7cbe
000000b0: afb1 d93e d1bf 4cbe ec0a c3be 4ee6 bbbe
000000c0: a061 bdbe 5c51 1f3f 8815 21be fdd9 0e3f
000000d0: 1eaa 5b3e e641 d5bd 267f a1be 7832 03be
000000e0: d96f 1d3f 9c42 d3bc d19b 1e3e b164 a6bd
000000f0: 532f 27bd 20d2 373e 2f1a 5f3e 92fc d6bd
00000100: 0c9b f63e 9d48 0b3f 183b ef3d 9733 31be
00000110: 3d58 333f 2280 12bf ecbc 323e b8e4 903c
00000120: 743b b03d d4ce d63c 5180 c23f 6709 f73e
00000130: a570 e83d c11c 9fbe e4ff 1cbf 441b d93e
00000140: 7b78 d83e c5a7 ea3e f245 14bf e964 543f
00000150: 5141 bb3b 2f66 523f 4125 213f 7dae a33e
00000160: d084 5cbe a2bc c13e 04c4 613e 5ee1 443f
00000170: b2b8 c2be 061f 0f3e 3117 893e ca28 cf3e
00000180: deaa 2f3e d4e0 90be 7e80 0abe bd52 09bf
00000190: 6aa3 46bf d1c7 3c3e aa34 5f3e 598e 76be
000001a0: 2d70 2c3d c51c 65bd f5e6 10bf b2ad 99be
000001b0: b2e1 9cbe b2c7 6d3f e278 b1be 47cd 6e3f
000001c0: 79a1 30bf 83f5 f33d 8015 29be 4e58 c63e
000001d0: 217d 6a3d 0b49 1cbf c17e 033f 1500 7b3e
000001e0: 97ce 0bbf 3c7e c83d 05e5 1e3f c9cc 8bbe
000001f0: bb68 c03e 1807 e63e 1d10 213f d867 123f
00000200: 02a3 9f3d 35c3 473c f261 db3e 6b18 083f
00000210: 62ed 203f f677 283e 0613 18bf 324a 0d3f
00000220: 2e10 803e ccc9 783f e8e7 223f 8d80 473e
00000230: 9b32 e23c 56a5 123f a1e6 9ebb 5ee2 233f
00000240: 2446 f33e 5e76 203f 0014 503f c05c e73e
00000250: d148 97be de58 ed3e bcc0 413f 74df 5fbf
00000260: 62ac 0c3e 0490 8ebd 9b68 913e 1038 0f3d
00000270: 68a7 a13e 6227 38bf 3bd4 48bf 6a72 1ebf
00000280: 36fc 223f 7ef1 903e b8e5 f93e 1980 33be
00000290: 8580 103f 0793 413f 60e9 1dbf ab46 663f
000002a0: b414 5f3f 2447 3fbf 10be 45bd 28c7 65bf
000002b0: 4f4a 2a3f 9d0e 3fbf 8ac3 b4be f4ce 093f
000002c0: 12cc 353e c1bd 243f 485d dfbd b891 dd3d
000002d0: e1ed 243f cf1f 9c3e 49db eb3e 3185 89be
000002e0: 9264 55be f153 34bf 1779 533f 4a31 70be
000002f0: 9809 72bd b522 b3bd cba7 813e 3623 1c3f
00000300: ac1c 393f 900d 513e f7d4 23bf 80a7 acbe
00000310: 31ce 6a3e e158 abbe 77c9 0b3f 2d45 283e
00000320: d42e 02be 6f08 c6be c252 b0bd efce 34bf
00000330: d1fc 803f 4c5c 39bf 865c 39bf b2e5 07be
00000340: df50 69bd e3c2 96be 2252 353f 915a 39bf
00000350: 9379 b0bd 6e57 c73e 53f0 b23e 0cc4 02be
00000360: 5731 a43e 2618 353f e63a 553f e1c5 05be
00000370: 5337 383f 9221 ac3e b10d 003f 9868 bdbd
00000380: 1bf1 3b3f 2f1f 39be 5bbd 90be 230f d6be
00000390: 9c54 cfbe 084d debe debb 383b e1d4 6cbe
000003a0: d0a2 1f3f bf46 863f 0d35 fe3e ba79 62be
000003b0: 90ad df3e 9501 463f 0e0f 7fbe d9c9 023e
000003c0: d073 ce3e c977 933e 626a cc3e 7508 46be
000003d0: a2a9 5d3e 2e77 643d 70d8 4e3f b844 8cbe
000003e0: 13ba a6bb 7b7b 7f3e 81a7 af3e f6eb 453f
000003f0: 694c 413f 68a5 4b3e 9b26 1abf 2135 903e

l1.bias f4 [8]
0.38049498 0.8502093 0.932289 0.7240011 0.60737795 0.9623741 0.6045331 0.62443334
00000000: 3dd0 c23e 51a7 593f 7eaa 6e3f 2358 393f
00000010: 1f7d 1b3f 265e 763f aec2 1a3f ddda 1f3f

l2.weight f4 [8, 8]
0.8588422 -0.29077283 1.6073692 1.5792756 1.3011082 0.020482307 -0.054128807 0.21200697
1.5843388 1.2532324 1.43894 0.40654147 0.20983051 -1.1316682 1.1045153 -0.6413474
-0.32355326 1.119871 1.16984 -0.5908331 1.0059373 1.1875004 -0.7480332 -1.4620777
-0.05145683 1.7409486 0.33327183 -1.0255175 0.3327714 -0.7972823 -0.24208967 0.8852099
-0.59630877 1.2490032 -1.7680314 0.6006572 0.53148234 1.1232928 1.3357315 -0.23878078
-0.8248414 -0.06696626 0.8695277 0.56733215 -1.4339007 0.39841068 1.6422937 -0.7537919
1.4109299 -0.011297443 -0.6515668 1.2402631 1.0345477 -0.14477207 1.6138437 1.7036827
-1.0796715 -0.31811777 1.0415138 0.4534753 -1.3546245 1.5948476 0.42810676 1.2974578
00000000: 15dd 5b3f 2de0 94be 46be cd3f b425 ca3f
00000010: b78a a63f 83ca a73c 2bb6 5dbd 5b18 593e
00000020: 9dcb ca3f eb69 a03f 302f b83f 3426 d03e
00000030: cfdd 563e 81da 90bf c260 8d3f 582f 24bf
00000040: c6a8 a5be ef57 8f3f 51bd 953f d740 17bf
00000050: 8ec2 803f 0300 983f 1b7f 3fbf 5d25 bbbf
00000060: 66c4 52bd 67d7 de3f 9ba2 aa3e 2844 83bf
00000070: 0361 aa3e b11a 4cbf 5be6 77be 1e9d 623f
00000080: b1a7 18bf 56df 9f3f da4e e2bf acc4 193f
00000090: 3a0f 083f 0fc8 8f3f 40f9 aa3f f382 74be
000000a0: ce28 53bf 9b25 89bd 5e99 5e3f ae3c 113f
000000b0: 0f8a b7bf 7cfc cb3e ae36 d23f 82f8 40bf
000000c0: 5a99 b43f e918 39bc 15cd 26bf f1c0 9e3f
000000d0: 0f6c 843f 213f 14be 6e92 ce3f 4612 da3f
000000e0: ad32 8abf 55e0 a2be 5350 853f ea2d e83e
000000f0: 5664 adbf f723 cc3f cf30 db3e 1913 a63f

l2.bias f4 [8]
0.096748136 -0.045638934 0.6068258 0.4392517 0.6345382 -0.14927176 -0.15733488 0.9491894
00000000: e323 c63d e4ef 3abd f058 1b3f 99e5 e03e
00000010: 1871 223f b2da 18be 651c 21be 14fe 723f

l3.weight f4 [11, 8]
-2.0294771 -2.067688 0.27201352 0.64454234 0.7259076 -1.9436789 -0.656286 0.44149843
-1.8469714 0.029518435 -0.13372004 0.6992655 0.696455 0.87589383 -0.5872958 -1.2859414
0.5228717 -0.393394 -1.9205986 -0.22959574 -2.0503988 0.08172379 0.04665376 0.73141015
0.42122146 -2.082924 0.462761 -0.9785233 -0.5627743 -1.6733261 -0.5990497 0.5368519
-0.052433938 0.050290868 1.1374705 0.9668682 -1.5923412 -1.9555981 -0.8305621 -1.2297493
0.60791856 0.379752 0.0396827 -0.8506841 -0.66533524 0.24718855 -0.10319002 -1.4384177
-1.4669058 -1.8183554 -1.6930029 -0.88264775 -0.025755977 1.167265 0.45075363 0.80509806
0.5981019 0.2970838 -2.0259538 0.11812523 -1.3344989 -2.7957218 0.67209005 -0.8716238
-0.3878594 0.076608256 -0.009199291 -0.49073115 -1.782538 1.580791 -1.416073 0.52873456
-0.51667356 0.4991713 -0.82341754 0.37998644 0.45216167 -2.5761619 0.4578881 -2.1196103
0.26749566 -1.0338608 -1.6270914 -0.69839436 0.7491819 -2.0610337 0.57883865 -0.5668188
00000000: f4e2 01c0 0055 04c0 5b45 8b3e ba00 253f
00000010: 15d5 393f 78ca f8bf 5c02 28bf 150c e23e
00000020: 8f69 ecbf a5d0 f13c e8ed 08be 1003 333f
00000030: e04a 323f 943a 603f 0459 16bf ba99 a4bf
00000040: ebda 053f f06a c9be 2dd6 f5bf 251b 6bbe
00000050: bc39 03c0 cd5e a73d 0318 3f3d b23d 3b3f
00000060: 57aa d73e a04e 05c0 03ef ec3e 8180 7abf
00000070: fa11 10bf 8d2f d6bf 525b 19bf 206f 093f
00000080: f8c4 56bd ccfd 4d3d a298 913f ad84 773f
00000090: d6d1 cbbf 0a51 fabf b89f 54bf 6d68 9dbf
000000a0: 8da0 1b3f db6e c23e 548a 223d 6fc6 59bf
000000b0: 6953 2abf ff1e 7d3e 4a55 d3bd 121e b8bf
000000c0: 92c3 bbbf dfbf e8bf 52b4 d8bf 34f5 61bf
000000d0: 33fe d2bc f168 953f 2ec9 e63e e81a 4e3f
000000e0: 351d 193f 5e1b 983e 3aa9 01c0 a4eb f13d
000000f0: dcd0 aabf 1bed 32c0 180e 2c3f bd22 5fbf
00000100: 8295 c6be cae4 9c3d 9fb8 16bc 1d41 fbbe
00000110: 352a e4bf 5c57 ca3f e141 b5bf 265b 073f
00000120: b844 04bf 6193 ff3e 7ecb 52bf 958d c23e
00000130: bc81 e73e d6df 24c0 4f70 ea3e b2a7 07c0
00000140: 31f5 883e 8d55 84bf 8844 d0bf f9c9 32bf
00000150: 63ca 3f3f fae7 03c0 c52e 143f 091b 11bf

l3.bias f4 [11]
0.27745923 -0.10877832 -0.05366336 0.74224395 0.0052322717 -0.02738482 0.023943974 -0.37313646
0.15035442 -0.3240062 -0.089439504
00000000: 230f 8e3e 2bc7 debd 1dce 5bbd b303 3e3f
00000010: 7a73 ab3b 2156 e0bc 2726 c43c be0b bfbe
00000020: 82f6 193e 24e4 a5be 0f2c b7bd
