data.pth (torch, 5279 bytes, 6 tensors)

l1.weight f4 [8, 50]
0	0xbde7c06a	-0.11315997
1	0xbe372076	-0.17883477
2	0x3e8f8151	0.28028348
3	0x3ec284d4	0.37991965
4	0xbea607f1	-0.32427934
5	0xbf44aad2	-0.7682315
6	0xbf6603f3	-0.89849776
7	0x3f1f3a76	0.6219858
8	0x3f47707a	0.77906
9	0x3e630070	0.22168136
10	0x3f10b3bd	0.5652426
11	0xbf5dbe40	-0.86618423
12	0xbed81ec0	-0.4221096
13	0x3e1e77e2	0.15475419
14	0xbee74812	-0.45172173
15	0x3e1f8ed9	0.15581836
16	0x3f85dea8	1.0458574
17	0xbd98d47a	-0.07462402
18	0x3f0b7310	0.54472446
19	0xbeb65463	-0.35611257
20	0x3f3b67f4	0.73205495
21	0xbf5d3f8a	-0.8642508
22	0xbf0a5cfb	-0.54048127
23	0xbf5aca39	-0.8546482
24	0xbf360018	-0.71093893
25	0xbd3c6940	-0.04599881
26	0x3e8bf03e	0.27331728
27	0xbded68f1	-0.115922816
28	0x3ee3e8de	0.445136
29	0xbd21ca1a	-0.03949938
30	0x3e388e43	0.18023019
31	0x3efa72e3	0.48915777
32	0x3d7e0bd7	0.06202301
33	0x3e7499a3	0.23886733
34	0x3ed01d7a	0.4064749
35	0x3f0ef45f	0.5584163
36	0x3f7f6508	0.99763536
37	0x3eb79b29	0.35860565
38	0x3ef94949	0.48688725
39	0x3ec53ec8	0.3852446
40	0x3e6f818a	0.23389259
41	0xbf6c67ac	-0.9234569
42	0xbe8b8042	-0.2724629
43	0xbed7e288	-0.42165017
44	0xbe91b21e	-0.28456205
45	0x3f159665	0.5843261
46	0xbec2e0c8	-0.3806212
47	0x3eaa0af6	0.33211488
48	0xbef63713	-0.48088893
49	0x3e1e8477	0.15480219
50	0x3e8da339	0.27663592
51	0x3e5d0a6a	0.21586004
52	0xbe98ff60	-0.29882336
53	0x3f2869ed	0.6578663
54	0xbe3a2452	-0.18177918
55	0xbec83e88	-0.39110208
56	0xbf0f000f	-0.55859464
57	0x3f3e0526	0.74226606
58	0x3f0d858f	0.5528192
59	0xbea1e95e	-0.31623358
60	0xbf3d56b9	-0.73960453
61	0xbef96d17	-0.4871604
62	0x3f1cddcc	0.61275935
63	0xbe39f2eb	-0.18159072
64	0xbe9827f3	-0.2971798
65	0xbe48da55	-0.19614537
66	0x3f524f22	0.82152
67	0x3f64812e	0.8925961
68	0xbe6966a1	-0.22793056
69	0xbebb1201	-0.36537173
70	0x3ef648e7	0.48102495
71	0xbf1acc90	-0.6046839
72	0xbf0c295a	-0.547506
73	0xbf1bf492	-0.6092006
74	0xbf320408	-0.695374
75	0xbf147266	-0.5798706
76	0x3d3f74b2	0.04674215
77	0xbe95f5d7	-0.29289123
78	0x3ec0e88b	0.37677416
79	0x3ddab3d3	0.1067883
80	0xbe250748	-0.16116059
81	0xbf3db7db	-0.74108666
82	0x3f602b25	0.87565833
83	0xbe184a71	-0.14872147
84	0x3b812945	0.0039416873
85	0x3f56e06a	0.8393618
86	0x3f7fa4b0	0.9986067
87	0x3f552211	0.83255106
88	0x3ea7286b	0.32648024
89	0x3f3e8f8f	0.74437803
90	0x3f3e7b1e	0.7440661
91	0x3efafc19	0.4902046
92	0x3ee2788e	0.442326
93	0x3d868bc8	0.0656963
94	0xbe15b5a4	-0.14620072
95	0xbdd8748f	-0.10569107
96	0x3ef3af17	0.4759452
97	0xbe247f3f	-0.16064166
98	0x3d92ba6a	0.07164462
99	0x3e989dc9	0.2980788
100	0x3f154bb2	0.58318627
101	0x3f15e188	0.5854726
102	0xbe9e0a9c	-0.3086747
103	0x3eaacb82	0.3335839
104	0xbed38d75	-0.4131886
105	0xbcdc3f63	-0.026885694
106	0x3f07d78e	0.53063285
107	0xbeaf733e	-0.3426761
108	0xbf1600f7	-0.5859522
109	0xbea1ad87	-0.31577703
110	0xbf3cf2ed	-0.73808175
111	0x3f06a3e5	0.52593833
112	0x3f3cf55e	0.738119
113	0xbe5c6d0c	-0.21525973
114	0x3dbc9a74	0.09209147
115	0xbe45a6c2	-0.19301894
116	0xbef7ad61	-0.48374465
117	0x3f438832	0.7637969
118	0xbedacc4f	-0.42734
119	0x3e81b32a	0.25332004
120	0xbf16c09c	-0.5888765
121	0x3e330ea5	0.17486055
122	0x3f42ee5e	0.7614497
123	0x3e266330	0.16248775
124	0x3e408dd3	0.18804102
125	0xbe028a66	-0.12748107
126	0x3ee9ffd1	0.45702985
127	0x3e90f51f	0.28312013
128	0xbf021245	-0.5080913
129	0x3eb3ddf5	0.35130277
130	0xbd02562a	-0.031820454
131	0xbf3d1bb9	-0.73870426
132	0x3f827978	1.0193319
133	0xbe6c008d	-0.23047085
134	0x3e440b2f	0.19144891
135	0xbea2851b	-0.31742176
136	0xbf003bdd	-0.50091344
137	0x3f21d088	0.6320882
138	0xbee1d637	-0.44108745
139	0x3f243528	0.6414361
140	0x3f7f1b6d	0.99651223
141	0x3f7f9bd6	0.9984716
142	0x3f381e38	0.7192111
143	0x3f14f630	0.5818815
144	0x3ea71421	0.32632545
145	0xbe6c9323	-0.23103003
146	0x3f5f6b7b	0.8727338
147	0xbe6949f5	-0.22782119
148	0x3f286c2e	0.6579007
149	0x3f073f72	0.52831185
150	0xbe3b8d8f	-0.18315719
151	0x3e4286dc	0.18996757
152	0x3d039dfa	0.03213308
153	0x3f0e5d36	0.5561098
154	0x3eef7d47	0.46775267
155	0x3eeeb8a5	0.46625248
156	0xbf22bc42	-0.6356851
157	0xbe762510	-0.24037576
158	0xbec76b05	-0.38948837
159	0x3eecaf26	0.46227378
160	0x3f30e06c	0.6909244
161	0xbf22cea8	-0.6359658
162	0x3eb85f30	0.36010122
163	0x3ebc7aa0	0.36812305
164	0x3f0f1d92	0.55904496
165	0x3ecc626f	0.3991885
166	0xbf105613	-0.5638134
167	0xbe93fd89	-0.2890437
168	0x3ec3985f	0.38202187
169	0x3edc02fc	0.42971027
170	0xbec1417b	-0.3774527
171	0x3f1ebf3c	0.6201055
172	0xbe6d21a1	-0.2315736
173	0x3f23a4a5	0.639231
174	0x3f26f35b	0.6521508
175	0x3f0d8e44	0.55295205
176	0x3f0933a1	0.53594404
177	0x3f04cb22	0.51872456
178	0xbe5d11d0	-0.21588826
179	0xbe20ab50	-0.1569035
180	0x3ecd5a1a	0.40107805
181	0x3f91902a	1.137212
182	0xbed039df	-0.40669152
183	0x3e8b78e8	0.27240682
184	0x3eec8a05	0.4619905
185	0xbeb38c15	-0.35067812
186	0xbf09f445	-0.5388835
187	0x3f0c3672	0.54770577
188	0xbe42e910	-0.19034219
189	0x3f0587db	0.52160424
190	0xbe768901	-0.240757
191	0xbf2c8fde	-0.67407024
192	0xbe6b7254	-0.22992831
193	0x3e1810e8	0.14850199
194	0x3eca44de	0.39505666
195	0x3ec73cd8	0.38913608
196	0x3e72dc5f	0.23716877
197	0x3ea7646e	0.3269381
198	0xbbbd3dc9	-0.0057751876
199	0x3d41e023	0.047332894
200	0xbef48e99	-0.47765043
201	0xbe9f4704	-0.31108868
202	0x3f0e8262	0.556677
203	0x3e8ad81f	0.27118012
204	0x3ef771c2	0.48328978
205	0x3ebe0fdc	0.37121475
206	0x3f28e1fc	0.65969825
207	0xbd97355d	-0.07383225
208	0x3f553238	0.8327975
209	0x3ea88a89	0.32918194
210	0x3f415aa5	0.7552894
211	0x3efec986	0.49763125
212	0xbef9d40c	-0.4879459
213	0x3e61eacb	0.22062223
214	0x3f11652c	0.56795
215	0x3e78204a	0.24231067
216	0xbf1095b2	-0.56478417
217	0xbf2d0196	-0.67580545
218	0x3efcac58	0.49350238
219	0x3f282d69	0.6569429
220	0x3f38673a	0.7203251
221	0x3f81cfd0	1.0141544
222	0x3ead6394	0.33865035
223	0x3f7aee8b	0.9802024
224	0x3f6ba801	0.9205323
225	0x3f55ca23	0.8351156
226	0x3e763d03	0.24046712
227	0x3e3bef89	0.18353094
228	0x3f42723f	0.75955576
229	0xbc80f708	-0.015742794
230	0x3e4603f5	0.19337447
231	0x3f78a8de	0.9713267
232	0xbf29f85a	-0.6639458
233	0x3e4f1769	0.20223774
234	0x3e844ab4	0.25838244
235	0xbe06fe6c	-0.13182992
236	0xbee76d6c	-0.4520067
237	0xbf0bc0c9	-0.5459104
238	0x3f073ce2	0.52827275
239	0xbf1292b9	-0.5725513
240	0xbf01eda6	-0.5075325
241	0xbf3a6ccc	-0.7282226
242	0xbf16bc5a	-0.5888115
243	0xbe9afd70	-0.30271482
244	0x3e6e752f	0.2328689
245	0x3ebda8b0	0.3704276
246	0xbf06a0af	-0.52588934
247	0x3eb67ab9	0.35640505
248	0xbe6cc09a	-0.23120347
249	0x3e485136	0.1956223
250	0x3e900b2d	0.28133526
251	0x3e9de246	0.30836695
252	0x3eca9f05	0.39574447
253	0xbe804f64	-0.2506057
254	0xbda0a7e1	-0.0784452
255	0xbd310817	-0.043220606

l1.bias f4 [8]
0	0x3f6c67b1	0.9234572
1	0x3f3db722	0.74107563
2	0x3f3d1863	0.73865336
3	0x3f22cf8f	0.6359796
4	0x3f3a674c	0.7281387
5	0x3f74bb4e	0.95598304
6	0x3f10ea7c	0.56607795
7	0x3f1ac056	0.6044973

l2.weight f4 [8, 8]
0	0x3f462eb3	0.7741501
1	0x3fc3df47	1.5302514
2	0x3fa7ea62	1.3118403
3	0xbf43ea8b	-0.7652976
4	0xbf9d57e8	-1.2292452
5	0x3fb7b1b9	1.4351112
6	0x3f37bc0a	0.717713
7	0xbf21c750	-0.6319475
8	0x3fc2e087	1.522477
9	0x3f6879ba	0.9081074
10	0xbe8d36b6	-0.27580804
11	0x3c302a90	0.010752335
12	0x3f94d5e0	1.162777
13	0x3f9e0cc9	1.2347652
14	0xbfbeb5c9	-1.4899226
15	0x3ecde1f4	0.4021145
16	0x3f39ab63	0.7252714
17	0xbf84b170	-1.036665
18	0xbfb41b4b	-1.4070829
19	0x3f828ffd	1.0200192
20	0x3f0ec544	0.55769753
21	0x3f18a989	0.5963369
22	0x3e0aa3c4	0.13539034
23	0xbf916629	-1.1359302
24	0xbe2029b4	-0.15640908
25	0xbe8b110f	-0.27161452
26	0x3e2dcb80	0.1697216
27	0xbd8beeb2	-0.06832637
28	0x3d66dda8	0.05636373
29	0x3d39cf9f	0.04536402
30	0x3c57a0a5	0.013160859
31	0xbe2933f9	-0.16523732
32	0xbf85abc3	-1.0443043
33	0xbf1ea07a	-0.6196362
34	0x3ea6a147	0.3254492
35	0xbda856ac	-0.08219656
36	0x3e6e96c2	0.23299697
37	0x3f223925	0.63368446
38	0x3f65ed4b	0.89815205
39	0x3ff3a4d0	1.9034672
40	0x3ec6d67b	0.3883551
41	0x3ef3456c	0.47513902
42	0x3ec89a60	0.3918028
43	0x3fabc2a6	1.3418777
44	0x3ecb9696	0.39763325
45	0xbfd14b07	-1.6351022
46	0x3fd9386c	1.6970344
47	0x3f898ab4	1.0745454
48	0x3eb8b7d5	0.36077753
49	0xbf97ad15	-1.1849695
50	0xbecc37fd	-0.39886466
51	0x3f41b1f3	0.75662154
52	0x3fe0a6c2	1.755089
53	0x3eb79510	0.35855913
54	0xbd0c208b	-0.034210723
55	0x3fba9dfc	1.4579463
56	0xbf9123a3	-1.1339
57	0xbe37cf6b	-0.17950217
58	0x3febb019	1.8413116
59	0x3e7134d1	0.23555304
60	0xbe748294	-0.23877937
61	0x3fb80f59	1.4379684
62	0x3ee1de44	0.44114888
63	0x3f17cf66	0.5930084

l2.bias f4 [8]
0	0x3f4b3f05	0.79393035
1	0x3f6ce8a3	0.92542475
2	0x3da941a5	0.08264474
3	0xbe9d519f	-0.30726334
4	0x3ead27cf	0.33819434
5	0x3f183d9e	0.5946902
6	0x3f012226	0.5044273
7	0x3efafbe0	0.4902029

l3.weight f4 [10, 8]
0	0xbebbfdfa	-0.36717206
1	0xbfd2c03e	-1.6464918
2	0xbf2baca4	-0.67060304
3	0xbe14e92c	-0.14542073
4	0x3ec3ff24	0.38280594
5	0x3ef10676	0.47075242
6	0xbe84e372	-0.25954777
7	0x3e99e889	0.30060223
8	0x3f28c65c	0.6592767
9	0xbd603d9c	-0.054746255
10	0xbf304226	-0.68850935
11	0xbd349504	-0.044087425
12	0xbf4ab0e7	-0.7917618
13	0xbfe9adb9	-1.8256141
14	0xbf5fab80	-0.87371063
15	0x3f1dff39	0.61717564
16	0xbec335ca	-0.38126975
17	0x3f3269d5	0.69692737
18	0xbfbe2e1b	-1.485782
19	0xbe5b920d	-0.21442433
20	0x3d6b3ad4	0.05742915
21	0xbee7a808	-0.45245385
22	0x3f034775	0.5128091
23	0xbfb0e253	-1.3819069
24	0xbfd17db5	-1.6366488
25	0xbf2f59db	-0.68496484
26	0xbf9c4a3d	-1.2210156
27	0x3e799c08	0.24375927
28	0x3f267e40	0.6503639
29	0x3ecf9a2f	0.4054732
30	0x3f04979e	0.5179385
31	0x3e0cc35f	0.13746403
32	0xbee2ac87	-0.44272253
33	0xbcf0e690	-0.029406816
34	0xbf8713ad	-1.055288
35	0xbd07c8dd	-0.033150543
36	0x3f2ef89b	0.6834809
37	0xbfb5d434	-1.4205384
38	0x3ea5cf27	0.32384607
39	0x3f27d827	0.655642
40	0xbf90231e	-1.1260717
41	0xbf1a286e	-0.6021794
42	0x3f258f16	0.64671457
43	0xbd4a13e7	-0.049335387
44	0xbd9b4dd3	-0.07583203
45	0x3f16a1b6	0.588405
46	0x3f0c3b7b	0.5477826
47	0xbf9a4b27	-1.2054185
48	0xbfbb1f36	-1.46189
49	0x3eff27bc	0.49835002
50	0x3f967c79	1.1756736
51	0x3e71b0da	0.2360262
52	0xbf96d586	-1.1783912
53	0xbf8dc00b	-1.1074232
54	0x3ecd75b3	0.4012886
55	0xbf0cb717	-0.5496687
56	0x3f303f86	0.6884693
57	0x3f37b5a3	0.7176153
58	0xbf01d6cb	-0.50718373
59	0x3e65c274	0.22437459
60	0xbf354928	-0.7081475
61	0xbf94418e	-1.1582506
62	0xbfa8f090	-1.3198414
63	0xbff53442	-1.9156573
64	0x3f07ecb7	0.53095573
65	0xbf5d201e	-0.8637713
66	0xbedd5595	-0.43229356
67	0xbc21e157	-0.009880385
68	0xbf67960c	-0.9046333
69	0x3f2d2133	0.67628783
70	0xbf87fe35	-1.0624453
71	0xbe060090	-0.13086152
72	0x3f136efb	0.5759122
73	0xbfaae088	-1.3349771
74	0xbf228b9b	-0.6349427
75	0xbdd7c541	-0.1053567
76	0x3f3726d5	0.7154363
77	0xbf6cab09	-0.9244848
78	0xbf95d6f4	-1.1706223
79	0x3f30ceff	0.6906585

l3.bias f4 [10]
0	0xbe6a9798	-0.22909391
1	0xbe198cdb	-0.14995138
2	0x3d150da2	0.036389954
3	0x3e3c9f82	0.18420222
4	0xbe0c55f3	-0.13704662
5	0xbe9ebebb	-0.3100489
6	0xbe6996ce	-0.22811434
7	0x3ee3e6e3	0.4451209
8	0xbe2317a4	-0.15926987
9	0xbe410a5d	-0.1885161
