data.pth (torch, 4289 bytes, 6 tensors)

l1.weight f4 [8, 31]
0	0xbe31ecd7	-0.17375503
1	0x3e92a7f5	0.28643766
2	0x3f0ac156	0.5420126
3	0x3eb92577	0.36161396
4	0x3f46ba18	0.77627707
5	0xbef9b7ed	-0.48773137
6	0x3f18cbea	0.5968615
7	0x3f1d3521	0.61409193
8	0x3f7f3b9d	0.9970034
9	0x3f54cdc6	0.83126485
10	0x3f0ff7cc	0.56237483
11	0xbf24e732	-0.64415276
12	0x3eeadde9	0.4587243
13	0x3f139607	0.576508
14	0x3f0b57a6	0.54430616
15	0x3f24529f	0.6418857
16	0x3f07be68	0.5302491
17	0x3eab3996	0.33442372
18	0xbebb101f	-0.36535737
19	0x3ceaadd4	0.02864734
20	0xbee0d279	-0.43910578
21	0x3f60991c	0.87733626
22	0x3f67d201	0.90554816
23	0xbec220c1	-0.37915614
24	0xbee51b09	-0.4474719
25	0xbef72379	-0.4826925
26	0x3f23aba6	0.6393379
27	0x3e0c821e	0.13721511
28	0xbe489429	-0.19587769
29	0x3f282979	0.6568828
30	0x3e546c9d	0.20744558
31	0x3f2ef3c1	0.6834069
32	0x3de958e6	0.11393909
33	0x3cc48345	0.023988375
34	0xbea4cc66	-0.32187194
35	0x3eccfaf4	0.40035212
36	0x3f7671e8	0.9626756
37	0x3ecf5cdd	0.40500537
38	0xbe1ef691	-0.15523745
39	0xbf34028f	-0.70316404
40	0x3f3c1ce3	0.7348158
41	0xbeba808d	-0.364262
42	0x3f45bbf9	0.7723995
43	0xbf0ba599	-0.54549557
44	0x3ee18535	0.4404694
45	0xbf09075a	-0.5352684
46	0xbf10c0ea	-0.56544363
47	0xbeb9a606	-0.36259478
48	0xbe2e374e	-0.17013285
49	0x3e781230	0.24225688
50	0x3ebea049	0.37231663
51	0xbf340038	-0.70312834
52	0x3f46c78e	0.77648246
53	0xbf340e0c	-0.70333934
54	0xbd04b9dc	-0.03240381
55	0x3ee19579	0.4405935
56	0x3c069295	0.008213659
57	0x3f5202e2	0.8203565
58	0x3f50592a	0.81386054
59	0x3f32e5cd	0.698819
60	0xbe9ce274	-0.3064152
61	0x3ebfe535	0.3747956
62	0xbd6ee4fd	-0.05832385
63	0x3c0f0eb1	0.00873153
64	0x3e7bb0e3	0.24579196
65	0x3ec61637	0.38688824
66	0xbea30cb6	-0.31845635
67	0x3f76aa0f	0.9635324
68	0xbea311a8	-0.31849408
69	0x3e9a62e6	0.3015358
70	0xbe94f181	-0.29090503
71	0xbe73b851	-0.2380078
72	0x3ea03ad1	0.31294873
73	0x3f817c5c	1.0116076
74	0x3f078b67	0.52947086
75	0xbe981048	-0.29699922
76	0x3efb7b7c	0.4911765
77	0x3ea31c92	0.31857735
78	0x3f12f613	0.5740673
79	0x3ec4473a	0.38335592
80	0x3eb25082	0.34827048
81	0x3d2d2d5d	0.04227959
82	0x3e9c0519	0.3047264
83	0xbe001c90	-0.12510896
84	0xbea326ac	-0.31865442
85	0xbea36e19	-0.31919935
86	0x3f15ad25	0.5846732
87	0xbea30c71	-0.3184543
88	0xbe9d1728	-0.3068173
89	0xbee81b8a	-0.4533351
90	0xbdc66a35	-0.09688226
91	0x3ee16617	0.440232
92	0x3e083872	0.13302782
93	0x3ecc5182	0.39905936
94	0x3ec6adbc	0.38804424
95	0xbe0f93ee	-0.14021274
96	0xbece960d	-0.40348855
97	0x3f73556e	0.9505223
98	0xbeae31f1	-0.34022477
99	0x3f3ab77f	0.7293624
100	0xbe861a8d	-0.26192132
101	0xbf47dac3	-0.7806818
102	0xbeff395a	-0.49848443
103	0xbe86c805	-0.26324478
104	0xbe44ed98	-0.1923126
105	0xbf0f4167	-0.5595917
106	0x3f51952e	0.81868255
107	0xbedb39a8	-0.42817426
108	0xbefff04e	-0.49988025
109	0xbedba0e9	-0.42896202
110	0xbc235366	-0.009968614
111	0xbe15bb92	-0.14622334
112	0x3f051bcc	0.5199554
113	0x3f838a34	1.0276551
114	0xbef1e479	-0.47244623
115	0xbf4c0ac3	-0.7970392
116	0x3f7a5d77	0.97798866
117	0xbe6aa684	-0.22915083
118	0x3f8a5007	1.0805672
119	0xbf0b301c	-0.54370284
120	0x3f4c4e91	0.7980738
121	0x3f0823a7	0.531794
122	0xbeb1881e	-0.34674162
123	0x3e2acacc	0.16678923
124	0x3f54558f	0.8294305
125	0x3ef651bc	0.48109233
126	0xbe422748	-0.18960297
127	0xbe8dde3f	-0.27708623
128	0xbe9e9397	-0.30971977
129	0xbeb21b14	-0.34786284
130	0xbe8f9246	-0.28041285
131	0xbe35d19d	-0.17755742
132	0xbeb34751	-0.35015348
133	0xbde51f84	-0.11187652
134	0xbe267a6f	-0.16257642
135	0xbeb27988	-0.34858346
136	0xbeb237e3	-0.34808263
137	0xbd932881	-0.0718546
138	0xbea5827e	-0.3232612
139	0xbe9eef48	-0.31041932
140	0xbe8969ff	-0.2683868
141	0xbc97c786	-0.018527757
142	0xbe4f9966	-0.2027336
143	0x3efb0098	0.4902389
144	0xbeb3146a	-0.34976512
145	0xbd3ca930	-0.046059787
146	0xbeb27059	-0.3485134
147	0x3f649380	0.8928757
148	0xbee14e42	-0.44005018
149	0x3f4cfdac	0.8007457
150	0xbe157a7c	-0.14597505
151	0x3f95276f	1.1652659
152	0x3f6539ef	0.89541525
153	0xbe0b232c	-0.13587636
154	0x3e971ad8	0.29512668
155	0x3d9c649a	0.07636376
156	0xbc6211e4	-0.013798211
157	0x3e643386	0.2228528
158	0x3ef177e3	0.4716178
159	0xbec8aca8	-0.39194226
160	0x3eb8d8a4	0.36102784
161	0xbedfaaa8	-0.43684888
162	0x3f2a7a9d	0.66593343
163	0xbedfa6a3	-0.4368182
164	0xbed8e470	-0.42361784
165	0x3f1fc6d5	0.6241277
166	0x3f413be3	0.75482005
167	0x3eedbd66	0.46433562
168	0xbed6066c	-0.41801775
169	0x3ef62901	0.48078158
170	0x3f0a899d	0.5411623
171	0x3f014f8a	0.5051199
172	0x3e6e4b97	0.23271023
173	0x3ed6ca6b	0.41951308
174	0xbd8ce543	-0.06879666
175	0x3f532e92	0.82492936
176	0xbed76e02	-0.42076117
177	0xbedfb83a	-0.4369524
178	0x3e62c31e	0.22144744
179	0x3ee4f41b	0.44717488
180	0x3e404f61	0.1878028
181	0xbed67edb	-0.41893658
182	0xbf207521	-0.62678725
183	0xbdc4ad6d	-0.09603391
184	0x3ef39d73	0.47581062
185	0x3e428955	0.189977
186	0xbf2a5c67	-0.66547245
187	0xbe12328d	-0.14277096
188	0xbe04d07a	-0.12970152
189	0xbea51d18	-0.3224876
190	0x3eb4427b	0.3520697
191	0x3f30b62e	0.69027984
192	0x3ea8452f	0.32865283
193	0xbe378429	-0.17921509
194	0x3d83034d	0.06397114
195	0xbf2addc3	-0.6674463
196	0xbea7c0f2	-0.32764393
197	0x3f1864be	0.5952872
198	0xbf18f38b	-0.5974662
199	0x3ea3b385	0.319729
200	0xbf153c87	-0.5829548
201	0xbf126603	-0.5718691
202	0xbeb44afe	-0.35213464
203	0xbe2a1025	-0.16607721
204	0x3f0ccfaf	0.550044
205	0x3da577de	0.080795035
206	0x3f8cbe0b	1.0995497
207	0xbf2c24e7	-0.6724381
208	0x3d1870d5	0.03721698
209	0x3ee9a39d	0.4563264
210	0x3ee68c85	0.45029083
211	0x3ec73957	0.38910934
212	0xbf300ada	-0.6876656
213	0xbf2f6b68	-0.68523264
214	0xbead0f60	-0.33800793
215	0xbe1be059	-0.152223
216	0x3db89936	0.09013598
217	0xbd7e84fb	-0.06213854
218	0xbc3ebc18	-0.011641525
219	0x3edd9071	0.43274263
220	0x3ea0f870	0.31439543
221	0xbeede11e	-0.46460813
222	0x3df2ff72	0.118651286
223	0xbeee7a7d	-0.46577826
224	0x3efffdee	0.4999842
225	0xbeeeea1a	-0.4666298
226	0xbd0aec3c	-0.033916697
227	0x3ee68dc5	0.45030037
228	0x3e8b59f9	0.2721708
229	0x3f4c7fb7	0.7988238
230	0xbeee079e	-0.46490186
231	0x3f629767	0.8851227
232	0x3f73f493	0.95295066
233	0x3eb9b65e	0.36271948
234	0x3ef92cac	0.48666894
235	0x3e8825a4	0.26591218
236	0xbdba1f7e	-0.09088038
237	0xbeee21cd	-0.46510163
238	0xbe0b6732	-0.13613585
239	0xbeee2d37	-0.4651887
240	0x3edfbcef	0.43698832
241	0x3e218945	0.1577502
242	0x3ee3d854	0.44500983
243	0xbe4bbae7	-0.19895516
244	0x3f0f6189	0.560082
245	0xbe1029ec	-0.14078492
246	0x3eddb37d	0.43301
247	0x3e06557c	0.13118547

l1.bias f4 [8]
0	0x3f69d2d0	0.913373
1	0x3f34096a	0.70326865
2	0x3ea30497	0.3183944
3	0x3f4d0523	0.80085963
4	0x3eb25c3f	0.34836003
5	0x3edfe8f4	0.43732417
6	0x3f2f718d	0.6853264
7	0x3eedfc93	0.4648176

l2.weight f4 [8, 8]
0	0x3fb2f84a	1.3982022
1	0x3f80a9c9	1.0051814
2	0xbee65f1a	-0.44994432
3	0x3e3e2aee	0.18571064
4	0xbf22e35c	-0.6362817
5	0xbfa4caba	-1.2874367
6	0x3d4a3d46	0.04937484
7	0xbf998da5	-1.1996351
8	0x3ee47b0b	0.44625124
9	0xbf83b773	-1.0290359
10	0xbf452645	-0.7701152
11	0x3f755884	0.9583819
12	0xbe6359aa	-0.22202173
13	0x3dc94a7e	0.098286614
14	0x3f992106	1.1963203
15	0xbf82fb70	-1.0232983
16	0xbe3ac112	-0.18237713
17	0xbe800224	-0.25001633
18	0x3e3ac632	0.18239668
19	0x3b75f891	0.003753219
20	0xbe6ecf6c	-0.23321313
21	0xbe049186	-0.12946138
22	0xbea77e72	-0.32713658
23	0x3e777c2b	0.2416846
24	0xbf52f15c	-0.82399535
25	0x3ed7a788	0.42120004
26	0x3f690b7d	0.91033155
27	0x3f5bde26	0.85885847
28	0xbf919ac1	-1.1375352
29	0x3fc77715	1.5583216
30	0x3fabad73	1.3412308
31	0x3e9755c3	0.29557618
32	0x3c7f057e	0.015565274
33	0x3cc7712c	0.024345957
34	0xbe141731	-0.14461972
35	0xbd6cf390	-0.057849467
36	0xbe859655	-0.26091257
37	0xbe3a0917	-0.1816753
38	0xbe3d78f0	-0.18503165
39	0xbeab253d	-0.33426848
40	0x3fc27d48	1.5194483
41	0xbec65123	-0.38733777
42	0x3f00c8b6	0.5030626
43	0xbf2b7892	-0.6698085
44	0xbf314d5a	-0.69258654
45	0x3f3e258f	0.7427606
46	0xbf7137ea	-0.94225943
47	0x3f2a5f92	0.6655208
48	0x3d33c4b6	0.04388877
49	0x3f8e751a	1.1129487
50	0xbf7adb7e	-0.9799117
51	0x3fa2d8d5	1.2722422
52	0x3fb1054a	1.3829739
53	0xbf44bb15	-0.76847965
54	0xbf2937d0	-0.6610079
55	0x3e89da52	0.26924378
56	0x3d4e8d9b	0.050428014
57	0x3eea38ca	0.45746452
58	0xbf8192cd	-1.0122925
59	0x3fd499b5	1.6609408
60	0x3fc5a5ed	1.5441262
61	0xbefef96f	-0.49799678
62	0xbdbe77f5	-0.09300224
63	0x3f068e49	0.5256086

l2.bias f4 [8]
0	0x3f661da8	0.89889
1	0x3f71a1c3	0.94387454
2	0xbe9cdb40	-0.30636024
3	0x3f06afd8	0.52612066
4	0xbcb6ad2a	-0.022299368
5	0x3f6f8612	0.9356395
6	0x3ed3e6bf	0.41386983
7	0xbcff74db	-0.03118365

l3.weight f4 [8, 8]
0	0x3f753633	0.95785826
1	0xbff66eb8	-1.9252539
2	0x3e588800	0.2114563
3	0xbfdbcd74	-1.7172074
4	0xbdc8f8be	-0.09813069
5	0x3e906dea	0.28208858
6	0x3f01e073	0.5073311
7	0xbf25f3dc	-0.64825225
8	0xbebd003c	-0.3691424
9	0xbfa37c1b	-1.2772249
10	0x3e8ef9ff	0.27925107
11	0x3f9de080	1.2334137
12	0x3e83ef79	0.2576864
13	0xbf8018dc	-1.0007586
14	0xbf05091d	-0.5196703
15	0xbfdd85de	-1.7306478
16	0xbf9612c8	-1.1724482
17	0xbefd504f	-0.49475333
18	0x3ca3f5ae	0.02001461
19	0xbe85817f	-0.2607536
20	0xbe9879c6	-0.29780406
21	0x3f8da139	1.1064826
22	0xbf70f451	-0.941228
23	0xbf8d8510	-1.1056232
24	0x3eb1ab90	0.34701204
25	0x3f0360be	0.5131949
26	0x3e489815	0.19589265
27	0xbee122f1	-0.4397197
28	0x3e5a3fb3	0.21313362
29	0xbf2426e5	-0.6412185
30	0x3e3304bd	0.17482276
31	0xbe989e77	-0.298084
32	0xbfa1c003	-1.2636722
33	0x3f3e1347	0.74248165
34	0x3e07dee7	0.13268624
35	0x3ef8305e	0.484744
36	0x3dcce23c	0.10004088
37	0xbfa18de2	-1.2621424
38	0xbf03713f	-0.51344675
39	0xbf06a824	-0.5260031
40	0x3f35f9db	0.71084374
41	0x3f70d3e1	0.940733
42	0x3e6a2cde	0.22868678
43	0xbfcce4bd	-1.6007305
44	0xbe624e07	-0.22100078
45	0x3e6e4ea0	0.2327218
46	0xbf2da9df	-0.6783733
47	0xc0067bb0	-2.1012993
48	0xbff6befd	-1.9277035
49	0x3e658eff	0.2241783
50	0x3e65fbf4	0.22459394
51	0xbe3db651	-0.1852658
52	0xbd9eca51	-0.077534325
53	0xbf9cebea	-1.2259495
54	0x3f0a0170	0.53908443
55	0x3ed14cb4	0.40878832
56	0xbf1d8c38	-0.6154208
57	0xbfb5bd54	-1.4198403
58	0xbde17aa6	-0.110097215
59	0xbfcee3d5	-1.6163279
60	0xbe8b05b2	-0.27152783
61	0xbf96b782	-1.1774752
62	0x3f691b70	0.9105749
63	0x3f117409	0.5681768

l3.bias f4 [8]
0	0xbdec88ab	-0.11549505
1	0xbde351e8	-0.11099607
2	0x3e999b51	0.3000131
3	0xbf0e4b4f	-0.5558366
4	0xbf1fdc9b	-0.6244599
5	0xbd90e66b	-0.07075199
6	0xbe80c0fc	-0.25147235
7	0xbd6dab76	-0.058024846
